viktor_ia_dqn_model_bt.pth (torch, 90981 bytes, 24 tensors)

fc1.weight f4 [64, 10]
0	0xbd4003fc	-0.0468788
1	0xbdf450c0	-0.11929464
2	0x3cecda39	0.02891265
3	0x3e87b797	0.26507255
4	0x3e434dc8	0.1907264
5	0x3e9c85f0	0.30570936
6	0xbe4015d0	-0.18758321
7	0xbe6bd0a2	-0.23028806
8	0x3e27c736	0.16384587
9	0xbe2b58d5	-0.16733105
10	0xbe88c8cb	-0.26715693
11	0xbe1c5beb	-0.15269439
12	0x3e884486	0.2661478
13	0x3e148645	0.14504345
14	0xbdbf2a9d	-0.093343
15	0x3e2a9243	0.16657357
16	0x3e90b994	0.28266585
17	0x3e690109	0.22754301
18	0x3de2b46b	0.11069568
19	0x3e259dd3	0.16173486
20	0x3e546904	0.20743185
21	0xbe8b30cf	-0.27185676
22	0xbdb4b041	-0.0882268
23	0xbe949ae2	-0.29024416
24	0xbe0fab0f	-0.14030097
25	0x3d88d6e7	0.06681614
26	0xbe88127c	-0.26576602
27	0xbcae1ca6	-0.021253895
28	0xbeaf650a	-0.34256774
29	0xbda75a5b	-0.08171531
30	0xbddb6221	-0.10712076
31	0xbe86afd8	-0.26306033
32	0xbe6d7439	-0.23188867
33	0xbea5b608	-0.3236544
34	0x3dc60c5a	0.096703246
35	0xbd378236	-0.044801913
36	0xbe8e1362	-0.27749163
37	0xbe90ab27	-0.2825558
38	0x3cda0d64	0.026617713
39	0xbeaee0bc	-0.34155834
40	0x3e984b0e	0.29744762
41	0x3d735a2d	0.05941217
42	0xbea0b8ba	-0.31390935
43	0x3d04921c	0.032365903
44	0xbe4a6232	-0.19764021
45	0xbda08000	-0.07836914
46	0x3e61d107	0.22052394
47	0xbe19bc93	-0.15013342
48	0x3e761398	0.24030912
49	0x3e6bf029	0.23040833
50	0xbe0a064d	-0.13478966
51	0x3db0f429	0.0864032
52	0xbe19dff4	-0.15026838
53	0xbcc8de66	-0.02452011
54	0xbcf4dddc	-0.029890947
55	0xbe9cd601	-0.30632022
56	0x3b60c1c9	0.0034295192
57	0xbead45f8	-0.33842444
58	0xbdd9fc51	-0.10643829
59	0x3c651b18	0.01398351
60	0x3e977f57	0.2958934
61	0xbd19a2d6	-0.037508808
62	0xbddfbe16	-0.10924928
63	0x3e625748	0.22103608
64	0x3eca921e	0.39564604
65	0xbe089144	-0.13336664
66	0x3e944db1	0.28965524
67	0xbe21a51c	-0.1578564
68	0xbd9d10cf	-0.076692216
69	0xbe0b323c	-0.13593382
70	0xbcbce055	-0.023056189
71	0x3e228797	0.15872036
72	0xbc89f577	-0.01684068
73	0xbe81bc0f	-0.2533879
74	0x3e16dcbf	0.14732645
75	0xbc8ea075	-0.017410496
76	0xbe5cb77b	-0.21554367
77	0xbe994901	-0.2993851
78	0xbd83badc	-0.06432125
79	0x3d4290cb	0.047501367
80	0x3e4b4b25	0.19852884
81	0xbe9b08ff	-0.302803
82	0xbdbe19a4	-0.09282234
83	0xbe39efdc	-0.18157905
84	0x3d9d02b9	0.07666535
85	0xbb257e90	-0.002525244
86	0x3e64efb4	0.22357064
87	0x3e4b9017	0.19879185
88	0x3e02a6cc	0.1275894
89	0x3eb694b0	0.35660315
90	0x3dc12a83	0.094319366
91	0x3daad76a	0.08341868
92	0x3e844e74	0.25841105
93	0x3df5ea31	0.12007559
94	0xbe186e3a	-0.14885798
95	0x3e0d6457	0.13807808
96	0xbe413240	-0.18866825
97	0xbe9800e1	-0.2968817
98	0xbe9172df	-0.28407952
99	0xbe819781	-0.253109
100	0xbd187da5	-0.0372292
101	0xbe45c02d	-0.1931159
102	0xbe6f5a0a	-0.23374191
103	0x3d835e25	0.06414441
104	0x3cc83c3b	0.024442783
105	0x3eb25d52	0.34836823
106	0x3e38a946	0.18033323
107	0xbe839da7	-0.25706217
108	0x3e507ad4	0.20359355
109	0x3b8b98a7	0.004260141
110	0xbe0cfd63	-0.13768534
111	0x3e6f8b6c	0.23393029
112	0xbe7ea6d8	-0.24868333
113	0x3e5b7e9e	0.2143502
114	0xbea88ff2	-0.32922322
115	0xbe645913	-0.22299604
116	0x3b6b865b	0.0035938236
117	0xbe25fdca	-0.16210094
118	0xbe87c7a6	-0.26519507
119	0xbd36041e	-0.04443752
120	0x3e411889	0.18857016
121	0xbe417d84	-0.18895537
122	0xbe8f7f10	-0.28026628
123	0xbe964882	-0.29352194
124	0x3d009d81	0.031400207
125	0xbc0fe16c	-0.008781772
126	0xbebacce0	-0.36484432
127	0xbea3766f	-0.31926295
128	0xbd5bed22	-0.053692944
129	0xbe9c3b03	-0.30513772
130	0x3d2450f9	0.040116284
131	0xbc329566	-0.010899877
132	0xbe067b71	-0.13133027
133	0x3de87acd	0.113515474
134	0x3e08c356	0.13355765
135	0xbe67e9fe	-0.22647855
136	0x3e87a584	0.26493466
137	0x3e92a893	0.28644237
138	0x3e2be2d0	0.16785741
139	0xbd93516d	-0.07193265
140	0xbe16af8c	-0.14715403
141	0xbe91c6e4	-0.28472054
142	0x3e54029e	0.20704123
143	0x3e8a929e	0.27064985
144	0x3e8b28ea	0.27179652
145	0x3db6ff96	0.08935468
146	0x3e9d3e8a	0.30711776
147	0xbe82fea2	-0.25584894
148	0x3d6b930c	0.05751328
149	0x3e092fca	0.13397136
150	0xbe0181df	-0.12647198
151	0x3dc086bd	0.09400699
152	0x3dc83715	0.09776131
153	0x3e074c9d	0.1321282
154	0x3e86f5c9	0.26359394
155	0xbe784cb4	-0.2424801
156	0x3e145c54	0.14488345
157	0xbdb97f91	-0.090575345
158	0xbe46ec9f	-0.19426201
159	0xbd22ec62	-0.039776213
160	0x3d68e1de	0.05685603
161	0x3e0e4160	0.13892126
162	0x3e99055c	0.298869
163	0x3e845455	0.2584559
164	0x3e15f27b	0.1464328
165	0xbdab515f	-0.0836513
166	0xbd9fae96	-0.077969715
167	0x3e0ca854	0.13736087
168	0xbd8f5e10	-0.07000363
169	0xbe83a953	-0.25715122
170	0xbd9f857a	-0.077891305
171	0x3bb3c77b	0.0054864264
172	0xbe863aee	-0.26216835
173	0xbda7dc47	-0.081963114
174	0x3e315d45	0.17320736
175	0x3e50e1b7	0.20398603
176	0xbe5a0657	-0.21291481
177	0xbea11691	-0.3146253
178	0xbc4359c0	-0.011923254
179	0xbe7f75b3	-0.24947242
180	0xbb79dd4a	-0.0038126283
181	0xbe0d7d30	-0.13817286
182	0xbe5196f9	-0.20467748
183	0xbded222c	-0.115787834
184	0x3dd230d3	0.10263219
185	0xbe22877a	-0.15871993
186	0xbe97e867	-0.29669496
187	0x3e339463	0.17537074
188	0xbeb1e9aa	-0.34748584
189	0xbe85651b	-0.260537
190	0xbe3bf75f	-0.18356083
191	0xbdeed6fb	-0.11662098
192	0x3e8ba0c6	0.27271098
193	0xbd2b2c97	-0.04179057
194	0x3cb66b48	0.022267953
195	0xbc95702b	-0.018241962
196	0xbe80a624	-0.25126755
197	0x3e53b401	0.20674135
198	0x3cda8189	0.026673095
199	0x3eb839cd	0.35981598
200	0xbe42a370	-0.19007659
201	0xbe92a12a	-0.28638583
202	0xbddaebad	-0.10689483
203	0x3e279da6	0.16368732
204	0x3da103a0	0.078620195
205	0xbe981174	-0.29700816
206	0xbde5d2a3	-0.112218164
207	0xbe201bfc	-0.15635675
208	0x3e88ea7f	0.26741406
209	0xbe0d5c86	-0.13804826
210	0xbe68dd3e	-0.22740647
211	0xbdae2294	-0.08502689
212	0x3e278afe	0.16361615
213	0xbd2f664d	-0.04282217
214	0xbdb75d2f	-0.0895332
215	0xbdbc027c	-0.09180161
216	0x3e97c5bd	0.2964305
217	0x3ebb9c3e	0.3664264
218	0x3d38acad	0.04508655
219	0x3e6b5f5f	0.229856
220	0x3e94424c	0.2895683
221	0x3e4bdb6e	0.19907925
222	0x3eac220d	0.3361973
223	0x3e9a16f1	0.30095628
224	0x3d9148ff	0.07094001
225	0x3e7b07a9	0.24514641
226	0x3e8e929c	0.2784623
227	0xbe151f76	-0.14562783
228	0x3dcc8846	0.099869296
229	0x3d9aa4c1	0.075509556
230	0xbe4ae640	-0.19814396
231	0xbe72b7eb	-0.23702972
232	0x3e787016	0.24261507
233	0x3d9c7e99	0.07641334
234	0x3e051f02	0.1300011
235	0x3d76fb61	0.060298327
236	0xbc176f5b	-0.009242858
237	0x3e9159f4	0.2838894
238	0xbd49af9a	-0.049239732
239	0x3eba68cf	0.36408088
240	0xbe2714fd	-0.163166
241	0xbd475f96	-0.048675142
242	0xbe92db94	-0.2868315
243	0xbebaa7a2	-0.3645602
244	0xbe94820f	-0.29005477
245	0xbe2db7a7	-0.16964589
246	0xbe1dedf1	-0.15422799
247	0x3e248f83	0.1607037
248	0xbe2178b9	-0.15768708
249	0xbea4ba02	-0.32173163
250	0x3e411e2e	0.18859169
251	0x3c9dc6eb	0.01925989
252	0x3e9cc2f2	0.3061748
253	0x3e940c34	0.2891556
254	0xbe618644	-0.22023875
255	0x3e624878	0.22097957

fc1.bias f4 [64]
0	0xbdfccf30	-0.123442054
1	0x3ec28a17	0.3799598
2	0xbceadcad	-0.02866968
3	0xbdcacbc3	-0.09902146
4	0x3dd5a243	0.104313396
5	0x3e9b1c8f	0.30295226
6	0x3eacd216	0.33754033
7	0xbe851b8a	-0.25997573
8	0xbe20b596	-0.1569427
9	0x3e472e7c	0.19451326
10	0x3dc8a28a	0.09796627
11	0x3e824837	0.2544572
12	0xbc813be1	-0.015775623
13	0x3dbd5fe8	0.09246808
14	0x3e8f2532	0.27958065
15	0xbd8efcb2	-0.069817916
16	0xbd19ee5e	-0.03758084
17	0xbe0f15e5	-0.13973196
18	0x3e0a7d43	0.13524346
19	0x3e39a60d	0.1812975
20	0xbe5b4db6	-0.21416363
21	0x3d0c0871	0.034187738
22	0x3e33806d	0.1752946
23	0xbe6f485c	-0.23367447
24	0x3de75437	0.112953596
25	0x3df04e67	0.11733704
26	0xbe7da97f	-0.24771689
27	0xbde082be	-0.10962437
28	0x3d91420c	0.070926756
29	0xbe9fa0c7	-0.3117735
30	0xbe26861a	-0.16262093
31	0x3db60611	0.08887876
32	0xbd812620	-0.063061
33	0x3e6c9746	0.23104581
34	0x3da32761	0.07966495
35	0x3e951397	0.29116508
36	0x3e957229	0.2918866
37	0xbbeb31b0	-0.007177554
38	0xbc92b358	-0.017907783
39	0x3e45140f	0.19245933
40	0xbe67f7b7	-0.2265309
41	0x3eade588	0.3396418
42	0x3e6ed8b3	0.23324852
43	0x3e6836de	0.2267718
44	0x3ed12104	0.408455
45	0xbe4cceab	-0.20000713
46	0xbd6aacb5	-0.057293613
47	0x3d2164fd	0.03940295
48	0x3ea0c735	0.31401983
49	0x3e7ce3ea	0.24696317
50	0x3e6d082f	0.23147653
51	0x3e716440	0.23573399
52	0x3d1284d2	0.0357712
53	0x3bb3ab73	0.005483085
54	0x3d46d5a1	0.048543576
55	0x3d1deb59	0.038554523
56	0x3eafb05d	0.34314242
57	0xbe9a4bb4	-0.30135882
58	0x3ea7ab2a	0.32747775
59	0xbe7adfc9	-0.2449943
60	0x3cdbbcfc	0.026823513
61	0xbc8a4b9c	-0.016881756
62	0x3e336e30	0.17522502
63	0x3e8719a0	0.26386738

fc2.weight f4 [64, 64]
0	0xbcfd52fc	-0.03092336
1	0x3d457552	0.04820759
2	0xbda38fdf	-0.079864256
3	0xbde10320	-0.10986924
4	0x3e1302bc	0.14356512
5	0xbd958fd8	-0.07302827
6	0x3d7a38ce	0.06108933
7	0xbd6897be	-0.056785338
8	0xbca41f15	-0.020034352
9	0xbdaf6a42	-0.08565189
10	0x3de40cb0	0.111352324
11	0x3d9f823e	0.077885136
12	0x3d98e226	0.074650094
13	0x3c3a0f22	0.011356147
14	0x3d95e4d7	0.07319038
15	0x3c38490e	0.011247886
16	0xbdbc5067	-0.09195023
17	0x3ce0c894	0.027439393
18	0xbd29b969	-0.041436587
19	0x3d8a7c17	0.067619495
20	0xbdc8ecf1	-0.09810818
21	0x3e155451	0.14582945
22	0x3d1b1729	0.037863884
23	0x3d450ae4	0.04810609
24	0x3bb79329	0.0056022597
25	0xbcc692c6	-0.024239909
26	0x3d8ca361	0.068670996
27	0xbcc28396	-0.023744386
28	0xbdb8ddb6	-0.09026663
29	0x3d7ee393	0.06222875
30	0x3e46446b	0.19362037
31	0xbd024239	-0.031801436
32	0xbbcc0ee4	-0.006227361
33	0x3bb798ea	0.0056029456
34	0xbd5f0938	-0.05445215
35	0x3c93edb0	0.018057674
36	0x3db50984	0.088397056
37	0x3d7daa47	0.061929967
38	0xbd8f3ac8	-0.069936335
39	0x3cc22c48	0.023702756
40	0xbd88bee0	-0.066770315
41	0x3ddaf7a8	0.10691768
42	0x3e0379c3	0.12839417
43	0xbd07226b	-0.032991808
44	0x3dc9f24e	0.09860669
45	0xbd83f4b0	-0.06443155
46	0xbcfb925d	-0.03070944
47	0x3da86657	0.08222645
48	0xbdb0c74a	-0.08631761
49	0xbe03b538	-0.12862098
50	0x3dd59c9c	0.104302615
51	0xbd96dc89	-0.073662825
52	0x3baa6398	0.005199861
53	0xba5fa988	-0.0008532037
54	0x3dec57c9	0.11540181
55	0xba30e992	-0.0006748672
56	0x3e2d7fd3	0.16943292
57	0x3deaf9ca	0.11473425
58	0x3debdf04	0.11517146
59	0xbd3b34ab	-0.045704525
60	0x3db3443f	0.08753251
61	0x3e20b6b1	0.15694691
62	0xbd89b607	-0.06724172
63	0x3e1228f6	0.14273438
64	0x3c35e5a6	0.011102116
65	0x3dcf136f	0.101111285
66	0x3e4be1dc	0.19910377
67	0x3e620e54	0.22075778
68	0x3c071c7b	0.008246536
69	0xbd0889be	-0.033334486
70	0x3db63228	0.08896285
71	0xbd8100e7	-0.06299
72	0xbe0ed308	-0.1394769
73	0x3db6ed61	0.08931995
74	0xbda8b5c3	-0.08237793
75	0x3e286d75	0.16448005
76	0xbcb68f26	-0.022285055
77	0x3d821f59	0.06353635
78	0xbce69047	-0.028144969
79	0x3c94c927	0.018162323
80	0xbe51678e	-0.20449659
81	0xbc30cb7c	-0.010790702
82	0x3df4c475	0.11951534
83	0xbd5f706a	-0.054550566
84	0xbceff1d9	-0.029290127
85	0xbd976ddd	-0.07394002
86	0xbd33ecd5	-0.043927033
87	0xbdbc2a45	-0.0918775
88	0x3e49bd6a	0.19701162
89	0xbaa459b0	-0.0012538936
90	0xbd93646c	-0.07196888
91	0xbd8d0235	-0.068851866
92	0x3dd5e4da	0.104440406
93	0x3bdb51c0	0.006693095
94	0xbdbfbc42	-0.09362079
95	0xbcb69857	-0.022289438
96	0x3d8e8475	0.06958858
97	0x3dea20b1	0.11432017
98	0x3df36140	0.11883783
99	0xbd5513ab	-0.05202071
100	0x3d7d9266	0.061907195
101	0xbe1a8979	-0.15091504
102	0x3e54e957	0.20792137
103	0xbdd46497	-0.103707485
104	0xbde4cad4	-0.11171499
105	0x3dd1d175	0.10245029
106	0xbcb9da5b	-0.022687128
107	0xbbb2ff59	-0.0054625687
108	0xbc4eeeea	-0.012630204
109	0x3d6e2f2c	0.058150455
110	0xbdbdd3be	-0.09268902
111	0xbde1399a	-0.10997315
112	0x3d34949e	0.044087045
113	0x3dcfe402	0.10150911
114	0x3d8e9994	0.069628865
115	0x3d2d2935	0.042275626
116	0xbd2c3fd2	-0.04205305
117	0x3db4f833	0.08836403
118	0x3da89b02	0.082326904
119	0x3e340d07	0.17583095
120	0xbce85fc9	-0.028365986
121	0xbdcb8542	-0.09937526
122	0x3d6d3726	0.05791392
123	0xbdd44ee6	-0.10366611
124	0x3e47c82b	0.19509952
125	0x3b40a815	0.002939706
126	0xbd848265	-0.06470183
127	0xbd9e4b4c	-0.077292055
128	0xbb08a44b	-0.002084988
129	0xbc64ed0a	-0.01397253
130	0x3d197af6	0.03747078
131	0xbd389c37	-0.045070853
132	0xbdc8acd3	-0.097985886
133	0x3dd8df56	0.10589473
134	0x3d601ebd	0.054716814
135	0x3dca04aa	0.09864171
136	0xbcd5c040	-0.026092649
137	0x3d8ac0ea	0.06775077
138	0xbd0da5dc	-0.034582004
139	0x3da92988	0.082598746
140	0xbd358db9	-0.04432461
141	0x3dae1a24	0.0850108
142	0xbde274ac	-0.1105741
143	0x3e189085	0.1489888
144	0x3d70f6a3	0.05882896
145	0x3e06adab	0.13152187
146	0x3c02a8c3	0.007974806
147	0xbdbc5904	-0.09196666
148	0xbd9f26f3	-0.07771101
149	0xbd998ede	-0.07497953
150	0x3e114013	0.14184599
151	0xbd95df17	-0.07317942
152	0x3d55c775	0.05219217
153	0xbe020b99	-0.12699737
154	0xbdd8e2c2	-0.105901256
155	0x3cfeb233	0.031090831
156	0x3db43071	0.08798302
157	0xbd2168ec	-0.039406702
158	0xbde155bd	-0.110026814
159	0x3ac14653	0.001474569
160	0x3d0b7ae4	0.034052745
161	0xbc9c40d3	-0.01907388
162	0xbdf3e16b	-0.119082294
163	0xbdd196a2	-0.10233809
164	0x3bc653ad	0.0060524554
165	0xbdb69cca	-0.08916624
166	0xbcf0b923	-0.029385155
167	0xbd8002e7	-0.062505536
168	0x3dcd8770	0.10035598
169	0xbcf9df05	-0.030501852
170	0x3dcf05f6	0.10108559
171	0xbe02170b	-0.12704103
172	0x3d08b46c	0.03337519
173	0xbd59d931	-0.053185645
174	0xbdc2603e	-0.09491013
175	0xbde677a6	-0.1125329
176	0x3b5fe67e	0.0034164484
177	0x3b736293	0.0037137612
178	0xbcda7749	-0.026668208
179	0xbd776ac2	-0.060404547
180	0x3d452fff	0.048141476
181	0x3dce3fc8	0.10070759
182	0xbc002dfc	-0.0078234635
183	0xbcc202dd	-0.023683006
184	0x3d07d5a6	0.033162735
185	0x3c2c5310	0.0105178505
186	0xbc39a8fd	-0.011331794
187	0x3dd243b6	0.10266821
188	0x3b0829a8	0.0020776782
189	0x3e2c3ed2	0.16820839
190	0xbd6298c2	-0.055321462
191	0x3da23e5e	0.07922052
192	0xbc13af3c	-0.009013947
193	0x3d186480	0.03720522
194	0xbdd8e4af	-0.10590493
195	0xbd84a287	-0.06476312
196	0x3d575d05	0.052578945
197	0xbc7a6e20	-0.015285045
198	0xbd0aa478	-0.033848256
199	0xbc9539d7	-0.018216057
200	0xbc5d153a	-0.01349383
201	0x3b8e76db	0.004347665
202	0xbb286167	-0.0025692822
203	0xbdf2339e	-0.118262514
204	0xbda71d80	-0.081599236
205	0xbdf8dad2	-0.12151112
206	0xbdf6ce24	-0.12051037
207	0xbd92989c	-0.07158014
208	0x3e1fa4eb	0.15590255
209	0xbccbe739	-0.024890529
210	0x3c06e403	0.008233073
211	0x3d8659ae	0.06560074
212	0xbdbee305	-0.09320644
213	0xbcc3e38b	-0.023912212
214	0x3d0c7f7e	0.034301274
215	0xbdb7c6b1	-0.08973444
216	0xbdda14e0	-0.10648513
217	0xbd9c4fa4	-0.07632378
218	0xbd093635	-0.03349896
219	0xbc90ef46	-0.01769222
220	0xbc8bf337	-0.017083747
221	0xbd0b5924	-0.034020558
222	0x3db434b1	0.087991126
223	0xbd9b73b5	-0.07590429
224	0xbdaf02b5	-0.08545438
225	0xbcdc4ffe	-0.026893612
226	0xbe06a1b6	-0.13147625
227	0x3d9aa0b7	0.07550185
228	0x3d93e95d	0.07222245
229	0x3da09410	0.07840741
230	0x398d1a6e	0.00026913307
231	0xbd62a29f	-0.05533087
232	0xbdfbe327	-0.12299185
233	0xbdc46c55	-0.09590975
234	0xbd02ffb4	-0.03198214
235	0x3d43d6ed	0.04781239
236	0xbe10b25d	-0.1413054
237	0x3cf408d8	0.029789373
238	0xbdddbd48	-0.10827118
239	0x3ceef810	0.02917102
240	0x3dae97aa	0.085250214
241	0xbcdbb9f5	-0.02682207
242	0x3d4b2193	0.049592566
243	0x3c3285ac	0.010896128
244	0x3da76d84	0.08175185
245	0x3d8d11e6	0.068881795
246	0xbe248e59	-0.16069926
247	0xbd9edbb2	-0.07756747
248	0x3d9bdf36	0.076109335
249	0xbdda7de4	-0.10668543
250	0xbd698faf	-0.057021793
251	0xbe0b8b2c	-0.13627309
252	0x3dc4832c	0.095953315
253	0xba975098	-0.0011544405
254	0xbdce06e0	-0.10059905
255	0xbdd9e3f4	-0.10639182

fc2.bias f4 [64]
0	0xbd901cbe	-0.07036732
1	0x3d9f03f5	0.077644266
2	0xbd808988	-0.06276232
3	0x3db4362f	0.08799397
4	0x3e279271	0.16364457
5	0xbdd289a8	-0.10280162
6	0x3dc3dcbe	0.095635876
7	0xbd9d5570	-0.076823115
8	0x3db4d5cb	0.0882984
9	0xbcc9daee	-0.024640527
10	0x3db619b6	0.08891623
11	0x3e06dc7e	0.13170049
12	0x3e2a6886	0.16641435
13	0x3e1dcebf	0.15410899
14	0xbd024825	-0.031807084
15	0xbd7227bb	-0.05911992
16	0x3d13ea7f	0.036112305
17	0x3df1f44a	0.118141726
18	0xbde1da70	-0.11027992
19	0xbdca19f6	-0.09868233
20	0x3d37cebb	0.044874888
21	0x3d7f4e83	0.062330734
22	0x3d0fe80b	0.035133403
23	0x3c63aeaf	0.013896628
24	0x3d656105	0.05600073
25	0x3d1e30c5	0.03862073
26	0xbde21dae	-0.11040817
27	0x3e04aacb	0.12955777
28	0x3e26bb00	0.16282272
29	0xbdf68ce5	-0.12038592
30	0x3e3fe88e	0.18741056
31	0x3d3c3018	0.045944303
32	0x3dd809d4	0.105487496
33	0x3d84042c	0.06446108
34	0x3c931a27	0.017956806
35	0x3e49680b	0.19668595
36	0x3d0ce7b5	0.03440066
37	0xbd5f8378	-0.054568738
38	0xbda6926c	-0.081333965
39	0x3bc16389	0.005901758
40	0x3e17cca9	0.14824165
41	0xbd222dec	-0.039594576
42	0xbd8645d5	-0.06556288
43	0x3dedcf65	0.11611823
44	0xbd5d14b4	-0.053974822
45	0x3e1b4ca6	0.15165958
46	0x3d9e50f4	0.07730284
47	0x3e161b8a	0.14658943
48	0xbd53aca0	-0.0516783
49	0x3dd6ee11	0.10494626
50	0x3db6b765	0.089216985
51	0xbd2f6d9f	-0.042829152
52	0x3e42afc2	0.19012359
53	0xbdc2eccb	-0.09517821
54	0xbbdf808d	-0.0068207444
55	0x3e2b0b74	0.16703588
56	0x3d8a4efa	0.06753345
57	0x3dc1c767	0.09461861
58	0xbc820ed5	-0.015876213
59	0xbc3f719e	-0.011684803
60	0x3d09ffd6	0.03369125
61	0x3e085a82	0.13315776
62	0xbdb81590	-0.08988488
63	0x3e2de317	0.16981159

fc3.weight f4 [3, 64]
0	0xbd33b2b2	-0.04387159
1	0x3dc24f12	0.09487738
2	0xbdc38ea1	-0.09548689
3	0xbd4b32c3	-0.049608957
4	0x3de51304	0.111852676
5	0xbd362938	-0.044472903
6	0xbdcaf0fe	-0.09909247
7	0xbddb8836	-0.107193395
8	0x3bc62800	0.006047249
9	0x3e3b1bbf	0.18272303
10	0xbd2ca88b	-0.042152923
11	0x3e2aedcf	0.1669228
12	0x3cf63eb2	0.030059192
13	0x3e349011	0.17633082
14	0xbd4ccfe3	-0.050002944
15	0xbd6c0825	-0.057624955
16	0xbdca6bad	-0.09883819
17	0x3de6e4a1	0.11274076
18	0xbc86dceb	-0.016462764
19	0x3d0db8a0	0.0345999
20	0x3dc3a9ce	0.09553872
21	0x3dc2668b	0.09492215
22	0x3e0b67d5	0.13613828
23	0xbd34c20d	-0.044130374
24	0xbe50e0ca	-0.2039825
25	0xbd1beba5	-0.038066525
26	0xbddbf578	-0.10740179
27	0x3dd38b2d	0.1032928
28	0x3e354246	0.17701063
29	0x3dd8e930	0.10591352
30	0x3e455a7d	0.192728
31	0x3ce15b2e	0.027509298
32	0x3dcd52fa	0.10025592
33	0x3c98e8ba	0.01866566
34	0xbb9bb069	-0.0047512543
35	0x3e5224a6	0.20521793
36	0x3c63b146	0.013897246
37	0x3e29eca0	0.16594172
38	0xbdb4f9e3	-0.088367246
39	0x3dac67a5	0.08418206
40	0x3e1c9005	0.15289314
41	0x3dab3ead	0.08361564
42	0xbdabd96a	-0.08391078
43	0x3d88292c	0.06648478
44	0x3db3dc56	0.0878226
45	0x3e332cab	0.17497508
46	0x3d35e42c	0.044407055
47	0x3d116e53	0.035505604
48	0xbdf3a527	-0.11896735
49	0x3e2c9bdf	0.16856335
50	0x3dc3d4d3	0.095620774
51	0xbdcc9aa4	-0.09990433
52	0x3e46ea4c	0.19425315
53	0xbcc55f87	-0.024093403
54	0x3c83ba58	0.016080067
55	0x3da84828	0.08216888
56	0x3e1c1654	0.15242893
57	0x3d15ae98	0.03654346
58	0x3e212081	0.15735056
59	0x3d91438a	0.0709296
60	0xbd173d56	-0.03692373
61	0xbd49338b	-0.04912142
62	0xbd13c080	-0.036072254
63	0x3dffeffe	0.12496947
64	0xbe15a22a	-0.14612642
65	0xbe3964dd	-0.18104883
66	0x3cd374f4	0.025812604
67	0xbd6687a5	-0.056281704
68	0x3e006d84	0.12541777
69	0xbdc99dc0	-0.098445415
70	0xbd3451a3	-0.044023167
71	0x3da8ca62	0.082417265
72	0xbdc40ccd	-0.09572754
73	0xbc6a4ad1	-0.014300064
74	0x3e05c569	0.13063587
75	0xbe153958	-0.14572656
76	0x3d99475c	0.07484314
77	0x3d07c2e6	0.033144854
78	0xbcb1a299	-0.021683978
79	0x3d370ca4	0.04468979
80	0xbd25c725	-0.040473122
81	0x3d9de3e9	0.07709486
82	0x3e23f027	0.1600958
83	0x3de3e017	0.11126726
84	0x3d80482b	0.06263765
85	0x3e07286b	0.13199012
86	0xbd19a106	-0.03750708
87	0xbca7501d	-0.020423943
88	0xbdcd94f1	-0.10038174
89	0x3d8ccaf0	0.06874645
90	0xbde4c168	-0.11169702
91	0xbddbc875	-0.107315935
92	0x3e23c678	0.15993679
93	0x3be28cc0	0.0069137514
94	0x3db2d12d	0.08731303
95	0x3e179a88	0.14805043
96	0xbde0b182	-0.10971357
97	0xbd4e5757	-0.050376263
98	0x3e420ce5	0.18950231
99	0xbdde152e	-0.108438835
100	0x3dc50003	0.09619143
101	0xbd8dd39c	-0.06925127
102	0x3c76fe8a	0.015075335
103	0xbe2ad42d	-0.16682501
104	0xbdc41c60	-0.095757246
105	0xbca07312	-0.01958612
106	0x3cd719b6	0.026257377
107	0x3e383188	0.17987645
108	0xbd1a71a0	-0.037706017
109	0x3d3fb39d	0.046802152
110	0x3da267fa	0.07929988
111	0x3dc6536d	0.09683881
112	0xbdc602da	-0.09668513
113	0xbdce6519	-0.100778766
114	0x3d9ebf60	0.07751346
115	0xbca6dbfb	-0.020368567
116	0xbd120881	-0.03565264
117	0x3dd459c4	0.10368684
118	0x3d9af548	0.07566315
119	0x3e1ff2fe	0.15620038
120	0xbe0056b9	-0.12533082
121	0x3e128e18	0.14312017
122	0xbc9a5013	-0.01883701
123	0x3e197100	0.14984512
124	0xbd4603fc	-0.048343644
125	0x3dea0078	0.11425871
126	0xbe3fd601	-0.1873398
127	0x3e0346a9	0.12819923
128	0xbe071e83	-0.13195233
129	0xbd99ec86	-0.075158164
130	0x3d84eff7	0.06491082
131	0x3dd24229	0.10266525
132	0xbe306b3e	-0.1722841
133	0xbcdd3ea0	-0.027007401
134	0xbceb1248	-0.02869524
135	0x3d8a0898	0.067399204
136	0x3d9574de	0.07297681
137	0xbe3ed018	-0.18634069
138	0xbe42cff9	-0.19024648
139	0xbe303c1a	-0.17210427
140	0xbdc410c6	-0.09573512
141	0xbe0085cd	-0.12551041
142	0xbe316c03	-0.1732636
143	0x3d2488f1	0.04016966
144	0xbdb9bbd4	-0.090690285
145	0xbe266e6a	-0.16253057
146	0x3cb4a98b	0.0220535
147	0x3d20a332	0.039218135
148	0x3d6fdd10	0.05856043
149	0x3dcd1ab8	0.10014862
150	0xbddef7c0	-0.10887098
151	0x3dee41ef	0.116336696
152	0x3dd667eb	0.104690395
153	0xbe3d2a31	-0.18473126
154	0x3deb680c	0.11494455
155	0xbe042473	-0.1290453
156	0xbe338f74	-0.17535192
157	0x3cead2ce	0.028664973
158	0xbdf7cbba	-0.12099405
159	0x3dc52a5a	0.096272185
160	0x3db93bb6	0.09044592
161	0xbe46135f	-0.19343327
162	0x3b2752bf	0.0025531498
163	0xbe2dfe71	-0.16991593
164	0xbdd5648b	-0.10419568
165	0x3db70ee8	0.0893839
166	0x3d9e1c70	0.07720268
167	0x3d6f2107	0.058381107
168	0xbe4a06fe	-0.1972923
169	0xbe058f48	-0.13042939
170	0x3cc09493	0.023508346
171	0xbe1e3f1c	-0.15453762
172	0xbd4edf94	-0.05050619
173	0xbe29d900	-0.16586685
174	0x3cc14f22	0.023597304
175	0xbe229dab	-0.15880458
176	0x3ce938a8	0.028469399
177	0xbdd83927	-0.10557776
178	0xbe43be4e	-0.19115564
179	0xbddafb85	-0.10692505
180	0xbdc92f33	-0.09823456
181	0x3d8a8fbc	0.067656964
182	0xbc5dd6a6	-0.013539946
183	0xbdc1866e	-0.094494686
184	0x3d8b350d	0.06797228
185	0x3d44fd09	0.048092876
186	0xbe045310	-0.12922311
187	0x3d8894d9	0.066690154
188	0x3d9c8a87	0.076436095
189	0xbe5f4033	-0.21801834
190	0xbcb38ba4	-0.021917172
191	0xbe415819	-0.18881263

fc3.bias f4 [3]
0	0x3d002ee9	0.031294737
1	0xbda1e0aa	-0.079041794
2	0xbdc60481	-0.09668828

fc1.weight f4 [64, 10]
0	0xbd4003fc	-0.0468788
1	0xbe012be7	-0.12614404
2	0x3c8083f5	0.015687922
3	0x3e83e1a7	0.25758097
4	0x3e3ee436	0.18641743
5	0x3e99b579	0.30021265
6	0xbe4636e7	-0.19356881
7	0xbe705e11	-0.23473383
8	0x3e250ae4	0.16117436
9	0xbe2da378	-0.1695689
10	0xbe88c8cb	-0.26715693
11	0xbe134e28	-0.14385283
12	0x3e8570f5	0.26062742
13	0x3e0a675c	0.13515991
14	0xbdd43231	-0.10361136
15	0x3e1fa52f	0.15590356
16	0x3e8b4ecc	0.27208555
17	0x3e5e67f0	0.21719337
18	0x3dcdc534	0.10047379
19	0x3e1ab0b4	0.1510647
20	0x3e546904	0.20743185
21	0xbe869385	-0.26284423
22	0xbda1f355	-0.0790774
23	0xbe90860e	-0.28227276
24	0xbe06f066	-0.13177642
25	0x3d9a35b3	0.075297736
26	0xbe840fd5	-0.2579333
27	0xbc6bc4d3	-0.014390188
28	0xbeaaf842	-0.3339253
29	0xbd953364	-0.072851926
30	0xbddb6221	-0.10712076
31	0xbe8201a6	-0.25391883
32	0xbe63ee21	-0.22258808
33	0xbea15732	-0.31511837
34	0x3dd849e7	0.10560971
35	0xbd1325e5	-0.03592481
36	0xbe89c1a2	-0.26905543
37	0xbe8cc228	-0.2749188
38	0x3d11ba8b	0.035578292
39	0xbeaa355d	-0.33243838
40	0x3e984b0e	0.29744762
41	0x3d8adb61	0.067801245
42	0xbea33558	-0.31876636
43	0x3cb7820a	0.022400875
44	0xbe54f282	-0.20795634
45	0xbdb63454	-0.088966995
46	0x3e56f1b7	0.20990644
47	0xbe2444a0	-0.16041803
48	0x3e6b86ba	0.23000613
49	0x3e60fbcc	0.21971053
50	0xbe0a064d	-0.13478966
51	0x3dbfbc8b	0.093621336
52	0xbe11cec6	-0.14239034
53	0xbc88bf4a	-0.016692776
54	0xbcb17bdb	-0.021665504
55	0xbe98f66a	-0.298755
56	0x3beeb81c	0.007285131
57	0xbeab2d3a	-0.33432943
58	0xbdcebe8d	-0.100949384
59	0x3c7160db	0.014732565
60	0x3e977f57	0.2958934
61	0xbcdf8003	-0.02728272
62	0xbde93462	-0.11386944
63	0x3e58416c	0.21118706
64	0x3ec53674	0.38518107
65	0xbe1481d0	-0.14502645
66	0x3e8e5d86	0.27805728
67	0xbe2de0de	-0.16980311
68	0xbdb4b834	-0.088241965
69	0xbe1779a7	-0.147925
70	0xbcbce055	-0.023056189
71	0x3e229046	0.15875348
72	0xbc8846f7	-0.016635401
73	0xbe81b536	-0.25333565
74	0x3e16f057	0.1474012
75	0xbc8dbe18	-0.017302558
76	0xbe5c9a2a	-0.21543184
77	0xbe9939f9	-0.29927042
78	0xbd83684a	-0.06416376
79	0x3d435ff5	0.047698934
80	0x3e4b4b25	0.19852884
81	0xbe980e70	-0.29698515
82	0xbdcb78d7	-0.09935158
83	0xbe43fb83	-0.19138913
84	0x3d888669	0.06666262
85	0xbc54736e	-0.012966974
86	0x3e5aa0a0	0.21350336
87	0x3e41aa3b	0.18912594
88	0x3df125e4	0.11774805
89	0x3eb157a3	0.34637174
90	0x3dc12a83	0.094319366
91	0x3db9a103	0.09063914
92	0x3e8864ba	0.26639348
93	0x3e027511	0.1273997
94	0xbe0f90b8	-0.1402005
95	0x3e15742f	0.14595102
96	0xbe3cfb80	-0.18455315
97	0xbe951a19	-0.29121473
98	0xbe8cfe81	-0.2753792
99	0xbe7cc88c	-0.24685878
100	0xbd187da5	-0.0372292
101	0xbe3c1381	-0.18366815
102	0xbe759cbd	-0.23985572
103	0x3d5998b6	0.053124152
104	0x3c55cec5	0.013049786
105	0x3eac223d	0.33619872
106	0x3e2c4ef4	0.16826993
107	0xbe89a87a	-0.2688635
108	0x3e446a49	0.1918117
109	0xbc002518	-0.007821344
110	0xbe0cfd63	-0.13768534
111	0x3e7788a6	0.24173221
112	0xbe76a102	-0.24084857
113	0x3e63db32	0.22251585
114	0xbea419c6	-0.32050914
115	0xbe5cc7f1	-0.21560647
116	0x3be9e4a6	0.0071378527
117	0xbe1e7cf7	-0.15477358
118	0xbe835ff4	-0.25659144
119	0xbd225d39	-0.039639685
120	0x3e411889	0.18857016
121	0xbe38e70f	-0.18056892
122	0xbe8b1e8a	-0.27171737
123	0xbe921516	-0.28531712
124	0x3d22e549	0.039769445
125	0xb9e07500	-0.0004281178
126	0xbeb69f61	-0.3566847
127	0xbe9f8423	-0.311555
128	0xbd39a2df	-0.04532134
129	0xbe97e5ba	-0.29667455
130	0x3d2450f9	0.040116284
131	0xbabaab05	-0.0014241642
132	0xbe0c1cf6	-0.13682923
133	0x3dd3b90e	0.10338031
134	0x3dfc2823	0.12312343
135	0xbe73644d	-0.2376873
136	0x3e81ef49	0.25377873
137	0x3e8d0d5f	0.27549264
138	0x3e20e03e	0.15710542
139	0xbdaa5330	-0.08316648
140	0xbe16af8c	-0.14715403
141	0xbe8d1c33	-0.27560577
142	0x3e4e2c9f	0.20134209
143	0x3e853e8e	0.26024288
144	0x3e859de3	0.2609702
145	0x3d9f8b35	0.077902235
146	0x3e977547	0.29581663
147	0xbe88b813	-0.26702937
148	0x3d3e301d	0.046432603
149	0x3dfaaddc	0.12240192
150	0xbe0181df	-0.12647198
151	0x3dbbac4a	0.09163721
152	0x3dc8556e	0.097819194
153	0x3e0763b2	0.13221624
154	0x3e8707ff	0.26373288
155	0xbe78416e	-0.2424371
156	0x3e149dfb	0.1451339
157	0xbdb8f195	-0.09030453
158	0xbe469c31	-0.1939552
159	0xbd2167df	-0.0394057
160	0x3d68e1de	0.05685603
161	0x3e0a508e	0.13507292
162	0x3e98e493	0.29861888
163	0x3e8435b6	0.25822228
164	0x3e15c81a	0.14627114
165	0xbdac6eeb	-0.084195934
166	0xbda01321	-0.078161485
167	0x3e0c7868	0.13717806
168	0xbd8f3dd6	-0.06994216
169	0xbe838f66	-0.25695342
170	0xbd9f857a	-0.077891305
171	0x3c3bcf76	0.011463037
172	0xbe833b78	-0.2563131
173	0xbda5b023	-0.08090236
174	0x3e342c17	0.17594944
175	0x3e5367c8	0.20645058
176	0xbe57af94	-0.21063071
177	0xbea08dc6	-0.31358165
178	0xbc29b715	-0.010358592
179	0xbe7b0768	-0.24514544
180	0xbb79dd4a	-0.0038126283
181	0xbe049ac4	-0.12949663
182	0xbe488f33	-0.19585876
183	0xbddbb869	-0.10728533
184	0x3de3e616	0.1112787
185	0xbe19b094	-0.15008765
186	0xbe939167	-0.2882187
187	0x3e3bd950	0.18344617
188	0xbead7c9e	-0.33884138
189	0xbe80eb3b	-0.25179467
190	0xbe3bf75f	-0.18356083
191	0xbddce78e	-0.10786353
192	0x3e88d425	0.26724353
193	0xbd554b1d	-0.052073587
194	0x3c3f08cd	0.011659813
195	0xbcf12b08	-0.029439464
196	0xbe864cb8	-0.26230407
197	0x3e487e15	0.19579346
198	0x3c81a23f	0.015824435
199	0x3eb27018	0.34851146
200	0xbe42a370	-0.19007659
201	0xbe9212a1	-0.28529838
202	0xbdda673b	-0.10664221
203	0x3e2817a5	0.1641527
204	0x3da20093	0.07910266
205	0xbe97d68a	-0.29655868
206	0xbde46aac	-0.111531585
207	0xbe1ed574	-0.15511113
208	0x3e899223	0.26869306
209	0xbe0c9256	-0.13727698
210	0xbe68dd3e	-0.22740647
211	0xbda713ed	-0.081580974
212	0x3e203341	0.15644552
213	0xbd58fbc5	-0.05297448
214	0xbdcc5126	-0.09976415
215	0xbdd1b4ce	-0.10239564
216	0x3e927e08	0.2861178
217	0x3eb67b22	0.35640818
218	0x3d0f2eff	0.03495693
219	0x3e60b6aa	0.21944681
220	0x3e94424c	0.2895683
221	0x3e4f3329	0.2023436
222	0x3ea87ca2	0.32907587
223	0x3e94f1ce	0.29090732
224	0x3d791ca0	0.060818315
225	0x3e70429f	0.23462914
226	0x3e8950c1	0.26819423
227	0xbe1f3ef9	-0.15551366
228	0x3db80e8a	0.08987148
229	0x3d85a9f3	0.06526556
230	0xbe4ae640	-0.19814396
231	0xbe6a2cb6	-0.22868618
232	0x3e71b4f4	0.23604184
233	0x3d865360	0.06558871
234	0x3df37b99	0.11888809
235	0x3d474ef9	0.0486593
236	0xbca785b3	-0.020449495
237	0x3e8b9f2f	0.27269885
238	0xbd7890f6	-0.06068512
239	0x3eb496d2	0.35271317
240	0xbe2714fd	-0.163166
241	0xbd232e03	-0.039838802
242	0xbe8e26f5	-0.27764097
243	0xbeb73737	-0.35784313
244	0xbe909226	-0.28236502
245	0xbe25ef56	-0.1620458
246	0xbe174410	-0.14772058
247	0x3e2a1471	0.1660936
248	0xbe194f8f	-0.14971755
249	0xbea0676e	-0.3132891
250	0x3e411e2e	0.18859169
251	0x3cc10b00	0.023564816
252	0x3e993a2d	0.29927197
253	0x3e8eef11	0.27916768
254	0xbe6bfc17	-0.23045383
255	0x3e57938d	0.2105238

fc1.bias f4 [64]
0	0xbe001618	-0.12508428
1	0x3ebcb9e1	0.36860564
2	0xbd18090c	-0.037118003
3	0xbddceb16	-0.107870266
4	0x3dbe6d15	0.092981495
5	0x3e96a6eb	0.29424223
6	0x3ea63c24	0.3246776
7	0xbe8524d9	-0.26004675
8	0xbe2b80aa	-0.167483
9	0x3e3e5171	0.18585755
10	0x3daea17b	0.08526894
11	0x3e7b3b03	0.2453423
12	0xbcc57c27	-0.024107052
13	0x3da45a54	0.08025041
14	0x3e88e23b	0.267351
15	0xbd8e8333	-0.06958618
16	0xbd19ae75	-0.03751989
17	0xbe106ee9	-0.14104809
18	0x3e01ad84	0.12663847
19	0x3e2d67fe	0.16934201
20	0xbe5bca78	-0.21463954
21	0x3cc2e8f1	0.023792716
22	0x3e28fdae	0.16503021
23	0xbe7b59f6	-0.24546036
24	0x3dd7ddfc	0.10540387
25	0x3ddbde26	0.10735731
26	0xbe7d881c	-0.24758953
27	0xbde2f1aa	-0.1108125
28	0x3d834112	0.064088956
29	0xbe9e57f5	-0.3092648
30	0xbe26bdf7	-0.16283403
31	0x3da60cb0	0.08107889
32	0xbd882059	-0.06646795
33	0x3e60574e	0.21908304
34	0x3d96fcec	0.0737246
35	0x3e8f8bac	0.2803625
36	0x3e8f68f5	0.28009763
37	0xbc9a804f	-0.01886001
38	0xbcdb46f9	-0.02676724
39	0x3e396025	0.18103082
40	0xbe648f27	-0.22320233
41	0x3ea9b3a5	0.3314487
42	0x3e62eef4	0.22161466
43	0x3e5bd65f	0.21468495
44	0x3ecb56be	0.39714617
45	0xbe4bbb8d	-0.19895764
46	0xbd8a5647	-0.06754737
47	0x3cf0dfc6	0.029403578
48	0x3e9ad51d	0.30240718
49	0x3e743c95	0.23851235
50	0x3e609451	0.21931578
51	0x3e65a0ae	0.22424576
52	0x3cbf93c2	0.023385886
53	0x3bb4baa7	0.0055154148
54	0x3d161730	0.036643207
55	0x3d06a3b8	0.032870978
56	0x3ea9108d	0.3302044
57	0xbe9a4bb4	-0.30135882
58	0x3ea117c8	0.31463456
59	0xbe7b4323	-0.2453733
60	0x3c9dc52a	0.019259054
61	0xbce1ea89	-0.027577655
62	0x3e2773b6	0.16352734
63	0x3e81c1f9	0.25343302

fc2.weight f4 [64, 64]
0	0xbcfe310d	-0.031029249
1	0x3d15df57	0.036589947
2	0xbd910ae7	-0.070821576
3	0xbdce39d5	-0.10069624
4	0x3e077346	0.13227567
5	0xbd9260c2	-0.07147361
6	0x3d4c6032	0.049896426
7	0xbd5495ba	-0.051900603
8	0xbd03d9a4	-0.03218998
9	0xbda21d92	-0.07915796
10	0x3dcad073	0.0990304
11	0x3da94a85	0.082661666
12	0x3dab7fee	0.0837401
13	0x3831ab80	4.235981e-05
14	0x3d7abfec	0.061218187
15	0x3c2903a2	0.010315808
16	0xbdbc400c	-0.091919035
17	0x3d05028c	0.032473132
18	0xbd04d4c0	-0.032429457
19	0x3d6251f6	0.055253945
20	0xbdc912fe	-0.098180756
21	0x3e095687	0.13411914
22	0x3cd4fa20	0.025998175
23	0x3d106287	0.035250213
24	0x3c6f569e	0.0146080535
25	0xbd133e09	-0.035947833
26	0x3d88d2db	0.066808425
27	0xbc82d41e	-0.015970286
28	0xbdaf2cee	-0.085534915
29	0x3d788b78	0.060679883
30	0x3e407dde	0.18798015
31	0xbcb5810b	-0.022156259
32	0x3a5addc6	0.0008349087
33	0xbbd3fe12	-0.0064694965
34	0xbd37a39e	-0.044833772
35	0x3bced134	0.00631156
36	0x3d9df9b7	0.07713645
37	0x3d50d7ba	0.050986983
38	0xbd795e74	-0.060881093
39	0x3c4629d3	0.012094933
40	0xbd737f76	-0.059447728
41	0x3dea608f	0.11444198
42	0x3dedbb05	0.11607937
43	0xbd338336	-0.043826304
44	0x3db23d01	0.08703042
45	0xbd83f4b0	-0.06443155
46	0xbd303050	-0.043014824
47	0x3d8f789a	0.07005425
48	0xbdc7d8a9	-0.097581215
49	0xbdf77be8	-0.1208418
50	0x3dbec069	0.09314043
51	0xbdacfcb4	-0.08446637
52	0xbbd98fa6	-0.0066394387
53	0x3baf79e6	0.0053551076
54	0x3dd43d13	0.103632115
55	0x3c168bf8	0.009188645
56	0x3e206330	0.15662837
57	0x3deaf9ca	0.11473425
58	0x3ddc34a0	0.10752225
59	0xbd23dbe0	-0.04000461
60	0x3dc613bf	0.09671735
61	0x3e1495f1	0.14510323
62	0xbda18707	-0.078870825
63	0x3e06302e	0.13104317
64	0x3b920af7	0.0044568735
65	0x3dcee153	0.10101571
66	0x3e436ffb	0.19085686
67	0x3e593d87	0.21214877
68	0x3c062887	0.008188373
69	0xbd1d8cdd	-0.038464416
70	0x3daced4a	0.08443697
71	0xbd758cb4	-0.059948638
72	0xbe06d1b9	-0.1316594
73	0x3daada6a	0.083424404
74	0xbda05ec9	-0.07830579
75	0x3e227803	0.15866093
76	0xbceea60d	-0.029131914
77	0x3d86eb75	0.065878786
78	0xbce1afd5	-0.027549664
79	0x3cf46460	0.029833019
80	0xbe454afa	-0.19266883
81	0xbc83247d	-0.01600861
82	0x3de5a689	0.11213405
83	0xbd5fe656	-0.054663025
84	0xbccdccfb	-0.025122156
85	0xbd9083f1	-0.07056416
86	0xbd31d73c	-0.043418154
87	0xbdab7ed1	-0.08373798
88	0x3e42d120	0.19025087
89	0x3b078d7e	0.00206837
90	0xbd93646c	-0.07196888
91	0xbd818a5c	-0.06325218
92	0x3dcb57da	0.09928866
93	0x3bdb51c0	0.006693095
94	0xbdb12461	-0.08649517
95	0xbce61ab4	-0.028088905
96	0x3d875b5e	0.06609224
97	0x3de4fbd9	0.11180849
98	0x3de60788	0.11231905
99	0xbd59d25d	-0.053179134
100	0x3d6b6436	0.057468615
101	0xbe12acb9	-0.14323701
102	0x3e4dd0aa	0.2009913
103	0xbdd125c7	-0.102122836
104	0xbde4cad4	-0.11171499
105	0x3dc67080	0.096894264
106	0xbcb51406	-0.022104274
107	0xbc1dc17e	-0.009628652
108	0xbc4692f1	-0.0121199945
109	0x3d715341	0.058917288
110	0xbda929b5	-0.08259908
111	0xbdd415ae	-0.103556976
112	0x3d2b22b4	0.041781142
113	0x3dc4e17e	0.09613322
114	0x3d84a27c	0.06476304
115	0x3d1fae03	0.03898431
116	0xbd44e9eb	-0.048074644
117	0x3db0f5b5	0.08640615
118	0x3da4b7bd	0.08042858
119	0x3e2e5fcc	0.17028731
120	0xbd03802a	-0.03210465
121	0xbdcb8542	-0.09937526
122	0x3d5a1554	0.053242996
123	0xbdbc2420	-0.09186578
124	0x3e40c89b	0.18826525
125	0xbba02c13	-0.0048880666
126	0xbd8337f7	-0.06407159
127	0xbd95e3c5	-0.07318834
128	0x3b1063a0	0.0022032037
129	0xbc64e257	-0.013969979
130	0x3d18ed25	0.037335534
131	0xbd3c3e49	-0.045957837
132	0xbdc8aca3	-0.09798553
133	0x3dd8cfa9	0.10586483
134	0x3d600e81	0.054701332
135	0x3dc27a64	0.094960004
136	0xbcd5c040	-0.026092649
137	0x3d8a9e59	0.06768484
138	0xbd0da2c3	-0.03457905
139	0x3da9183a	0.08256574
140	0xbd35d9f7	-0.04439732
141	0x3dae1d76	0.08501713
142	0xbde279d8	-0.11058396
143	0x3e0e13a3	0.13874678
144	0x3d43e12e	0.04782217
145	0x3dee0149	0.11621339
146	0x3c01ee98	0.00793042
147	0xbdbc5918	-0.09196681
148	0xbd9f25e1	-0.07770897
149	0xbd8a04d5	-0.06739203
150	0x3e0ab642	0.13546088
151	0xbd86700d	-0.06564341
152	0x3d55a523	0.05215944
153	0xbdf3fa28	-0.11912948
154	0xbdd8e2c2	-0.105901256
155	0x3cf8d109	0.030373113
156	0x3db41d10	0.08794606
157	0xbd2168ec	-0.039406702
158	0xbdeb079e	-0.11476062
159	0x3abb5eb9	0.0014295197
160	0x3d0a34c8	0.033741742
161	0xbc9c4145	-0.019074092
162	0xbdf421d6	-0.11920516
163	0xbdd1946b	-0.102333866
164	0x3bc6042e	0.0060429787
165	0xbdb69acf	-0.08916246
166	0xbcf124da	-0.029436518
167	0xbd800396	-0.06250684
168	0x3dcd8770	0.10035598
169	0xbcfa268a	-0.030535955
170	0x3dcf0709	0.10108764
171	0xbe021a6e	-0.12705395
172	0x3d08b5ae	0.03337639
173	0xbd5d0be3	-0.053966414
174	0xbdc2603e	-0.09491013
175	0xbdd5cf77	-0.104399614
176	0x3b5fec2e	0.0034167874
177	0x3b70e1c6	0.0036755665
178	0xbcda9341	-0.026681544
179	0xbd77793d	-0.060418356
180	0x3d36ad9f	0.04459917
181	0x3dce224e	0.10065137
182	0xbc65e588	-0.014031775
183	0xbcc2ac63	-0.023763841
184	0x3d07b1f2	0.033128686
185	0x3c2c5310	0.0105178505
186	0xbc39d672	-0.011342632
187	0x3dd243b6	0.10266821
188	0x3afdb22a	0.0019355465
189	0x3e2142ad	0.15748091
190	0xbd62b004	-0.055343643
191	0x3da1f228	0.07907516
192	0xbc13e522	-0.0090267975
193	0x3d18791d	0.037224878
194	0xbdd8ddfc	-0.10589215
195	0xbd849a06	-0.0647469
196	0x3d579525	0.05263247
197	0xbc79954b	-0.015233348
198	0xbd0a7bbb	-0.033809405
199	0xbc9541e3	-0.018219894
200	0xbc5cd948	-0.013479538
201	0x3b8f41b2	0.004371845
202	0xbb26753f	-0.0025399474
203	0xbdf21dd8	-0.118220985
204	0xbda71bc8	-0.08159596
205	0xbdf8d510	-0.121500134
206	0xbdf6c464	-0.12049177
207	0xbd92baca	-0.071645334
208	0x3e1f961f	0.1558461
209	0xbccc05d5	-0.024905125
210	0x3c070d09	0.008242854
211	0x3d866467	0.06562119
212	0xbdbee1e7	-0.09320431
213	0xbcc3c17d	-0.023895973
214	0x3d0c98fd	0.03432559
215	0xbdb7c1f5	-0.08972541
216	0xbdda10e1	-0.10647751
217	0xbd9c46cf	-0.07630693
218	0xbd093ce0	-0.03350532
219	0xbc8fcd25	-0.017553875
220	0xbc8b5896	-0.017010015
221	0xbd0b5e6b	-0.03402559
222	0x3db42e49	0.08797891
223	0xbd9b6256	-0.075871155
224	0xbdaf0941	-0.08546687
225	0xbcdc2192	-0.026871476
226	0xbe0696ff	-0.13143538
227	0x3d9aab3d	0.07552192
228	0x3d93f285	0.07223991
229	0x3da09a49	0.078419276
230	0x398dd3bf	0.0002705138
231	0xbd629235	-0.055315215
232	0xbdfbe235	-0.12299005
233	0xbdc45a73	-0.09587564
234	0xbd02e278	-0.03195426
235	0x3d43efac	0.04783599
236	0xbe10ad56	-0.14128622
237	0x3cf408d8	0.029789373
238	0xbdddb6c0	-0.108258724
239	0x3cef15bb	0.029185167
240	0x3daea35f	0.08527254
241	0xbcdb464c	-0.026766919
242	0x3d4b3548	0.04961136
243	0x3c32d0b3	0.010914016
244	0x3da77cb5	0.08178083
245	0x3d8d0dff	0.06887435
246	0xbe2482c4	-0.16065508
247	0xbd9ebd4d	-0.0775095
248	0x3d9beea6	0.07613878
249	0xbdda7de4	-0.10668543
250	0xbd697741	-0.056998495
251	0xbe0b8a15	-0.13626893
252	0x3dc47e1a	0.095943645
253	0xba93ab7e	-0.0011266319
254	0xbdcdf0b2	-0.100556746
255	0xbdd9da48	-0.10637337

fc2.bias f4 [64]
0	0xbda4d138	-0.08047718
1	0x3d970c5d	0.07375405
2	0xbd809185	-0.06277756
3	0x3db44279	0.08801741
4	0x3e20e7f4	0.15713483
5	0xbdd289a8	-0.10280162
6	0x3dc03954	0.093859345
7	0xbd9d5441	-0.07682086
8	0x3db3a42d	0.087715484
9	0xbd057c07	-0.032588985
10	0x3da89d34	0.08233109
11	0x3dfcb003	0.12338259
12	0x3e20675f	0.15664433
13	0x3e15cffa	0.14630118
14	0xbd25a068	-0.04043618
15	0xbd722d9c	-0.059125528
16	0x3d13edc6	0.03611543
17	0x3de2bcf1	0.11071194
18	0xbde02e58	-0.10946339
19	0xbdca0632	-0.09864463
20	0x3d345f0e	0.044035964
21	0x3d7f515f	0.06233346
22	0x3cbfe826	0.023426127
23	0x3c64c1ee	0.013962252
24	0x3d622aa3	0.055216443
25	0x3d041fae	0.032256775
26	0xbde21dae	-0.11040817
27	0x3df8a0db	0.12140056
28	0x3e20330f	0.15644477
29	0xbdf68b75	-0.12038318
30	0x3e387451	0.18013121
31	0x3d3dc95c	0.04633461
32	0x3dcf2dd6	0.101161644
33	0x3d6e1a24	0.0581304
34	0x3c99df68	0.018783286
35	0x3e4128f7	0.18863283
36	0x3cd06eb2	0.025443409
37	0xbd6ad8db	-0.057335716
38	0xbda69c18	-0.08135241
39	0x3b0a8eed	0.002114232
40	0x3e100f1c	0.14068264
41	0xbd46cf82	-0.04853774
42	0xbd86433d	-0.065557934
43	0x3de066ca	0.109571055
44	0xbd5d14b4	-0.053974822
45	0x3e144b9a	0.14481965
46	0x3d9e5368	0.07730752
47	0x3e0eef2b	0.13958423
48	0xbd4929aa	-0.049112
49	0x3dc52a46	0.09627204
50	0x3da95de1	0.08269859
51	0xbd2f6c2b	-0.042827766
52	0x3e39c43d	0.18141265
53	0xbdbde485	-0.09272102
54	0xbbdf552b	-0.0068155727
55	0x3e22de10	0.15905023
56	0x3d840761	0.0644672
57	0x3dbf4e4e	0.09341107
58	0xbcdc705c	-0.026909046
59	0xbc4a8c36	-0.01236253
60	0x3d0a91d0	0.033830464
61	0x3e012927	0.12613355
62	0xbdbc0c3d	-0.09182022
63	0x3e2775b3	0.16353492

fc3.weight f4 [3, 64]
0	0xbd5aa98c	-0.05338435
1	0x3dafb276	0.085789606
2	0xbdc38466	-0.095467374
3	0xbd4b3c20	-0.049617887
4	0x3dd37573	0.10325136
5	0xbd362938	-0.044472903
6	0xbdcf2151	-0.101137765
7	0xbddb8836	-0.107193395
8	0x3a20a9e5	0.0006128832
9	0x3e306cdb	0.17229025
10	0xbd484114	-0.04889019
11	0x3e211697	0.15731274
12	0x3ca71205	0.020394335
13	0x3e2ade35	0.16686328
14	0xbd7b746d	-0.06139033
15	0xbd6be248	-0.057588845
16	0xbdca6cbb	-0.0988402
17	0x3dd098de	0.10185407
18	0xbca05261	-0.019570531
19	0x3d08a130	0.033356845
20	0x3dc782b5	0.09741727
21	0x3dc1f69d	0.09470866
22	0x3e01fbe9	0.12693752
23	0xbd34ffed	-0.044189382
24	0xbe41ecd3	-0.18937998
25	0xbd3ef8d1	-0.04662401
26	0xbddbf578	-0.10740179
27	0x3dc12bc5	0.094321765
28	0x3e2bfb4c	0.16795081
29	0x3dd8e930	0.10591352
30	0x3e3cb96b	0.18430106
31	0x3ce58112	0.028015647
32	0x3dbacd89	0.09121234
33	0x3c0a9ed8	0.008460723
34	0xbc3b74a4	-0.0114413835
35	0x3e48a238	0.19593132
36	0x3b471402	0.0030376916
37	0x3e208f65	0.156797
38	0xbdb4ca74	-0.08827677
39	0x3d992835	0.07478372
40	0x3e1234e0	0.14277983
41	0x3d936346	0.07196669
42	0xbdabdb25	-0.08391408
43	0x3d6a3e4d	0.05718832
44	0x3db3dc56	0.0878226
45	0x3e29c216	0.16577944
46	0x3d35e099	0.044403646
47	0x3cd5bf1f	0.02609211
48	0xbde54cc3	-0.11196282
49	0x3e230bbc	0.15922445
50	0x3db042bf	0.08606481
51	0xbdcc9aa4	-0.09990433
52	0x3e3dc432	0.18531874
53	0xbcc1ed3b	-0.02367269
54	0x3c83ba58	0.016080067
55	0x3d999db9	0.07500786
56	0x3e127fa4	0.14306504
57	0x3d15af53	0.036544155
58	0x3e145f0b	0.14489381
59	0x3d912e6d	0.07088933
60	0xbd174313	-0.0369292
61	0xbd6571b3	-0.056016635
62	0xbcc7c53a	-0.024386037
63	0x3dee0cf2	0.11623563
64	0xbe17693f	-0.14786242
65	0xbe366f95	-0.17816003
66	0x3cd36ece	0.025809672
67	0xbd6695e7	-0.0562953
68	0x3dfef2e7	0.12448674
69	0xbdc99dc0	-0.098445415
70	0xbd2ed0ea	-0.042679705
71	0x3da8cb6a	0.08241923
72	0xbdbfc024	-0.0936282
73	0xbc7e9a23	-0.015539679
74	0x3e041086	0.12896928
75	0xbe158971	-0.14603211
76	0x3d97586d	0.07389913
77	0x3d02a86e	0.03189891
78	0xbcbcd5ee	-0.023051228
79	0x3d36efc2	0.044662245
80	0xbd25c9f3	-0.040475797
81	0x3d9a9729	0.07548363
82	0x3e2236cf	0.1584122
83	0x3de22dc4	0.11043885
84	0x3d7cb47c	0.06169556
85	0x3e071922	0.13193181
86	0xbd1f0e38	-0.03883192
87	0xbca749c0	-0.020420909
88	0xbdc22f05	-0.094816245
89	0x3d88b827	0.06675749
90	0xbde4c168	-0.11169702
91	0xbddb0b96	-0.10695569
92	0x3e223c9f	0.15843438
93	0x3be28cc0	0.0069137514
94	0x3db1654d	0.086619
95	0x3e1557f9	0.1458434
96	0xbddb4013	-0.107055806
97	0xbd514269	-0.051088724
98	0x3e3cf1c6	0.18451604
99	0xbddd88ec	-0.108171314
100	0x3dc12dc6	0.09432559
101	0xbd890c06	-0.066917464
102	0x3c7a026d	0.015259367
103	0xbe27e4f8	-0.16395938
104	0xbdc319e3	-0.09526422
105	0xbca92ea3	-0.020652121
106	0x3cd70ff5	0.026252726
107	0x3e361e59	0.17785014
108	0xbd1a71a0	-0.037706017
109	0x3d3c09a3	0.045907628
110	0x3da266c5	0.07929758
111	0x3dc27f96	0.09496991
112	0xbdc67e06	-0.09692006
113	0xbdce038b	-0.100592695
114	0x3d9cdc96	0.07659261
115	0xbca85125	-0.020546505
116	0xbd1400b3	-0.03613348
117	0x3dd6d95f	0.10490679
118	0x3d9af6da	0.075666144
119	0x3e1da2a8	0.1539408
120	0xbdfb18a1	-0.12260557
121	0x3e114708	0.14187253
122	0xbcada85e	-0.021198448
123	0x3e1910f7	0.14947878
124	0xbd460410	-0.048343718
125	0x3de600ef	0.11230647
126	0xbe38454c	-0.17995185
127	0x3e025107	0.12726222
128	0xbdf12842	-0.11775257
129	0xbd8ad962	-0.06779744
130	0x3d5c0296	0.053713404
131	0x3dd24754	0.10267511
132	0xbe263a38	-0.16233146
133	0xbcdd3ea0	-0.027007401
134	0xbcc143e8	-0.02359195
135	0x3d8a0898	0.067399204
136	0x3d9577a3	0.072982095
137	0xbe32d9f0	-0.17465949
138	0xbe37c94f	-0.17947887
139	0xbe23a947	-0.15982543
140	0xbdac03e8	-0.083991826
141	0xbdeb185b	-0.11479255
142	0xbe2409fb	-0.16019432
143	0x3d248619	0.040166948
144	0xbdb9bbd4	-0.090690285
145	0xbe1b0fcd	-0.15142746
146	0x3cd8db7c	0.026471846
147	0x3d228fba	0.03968785
148	0x3d6cd615	0.057821352
149	0x3dcd3811	0.100204594
150	0xbdc30bd7	-0.09523743
151	0x3dedc60d	0.11610041
152	0x3dcb3520	0.09922242
153	0xbe316466	-0.17323455
154	0x3deb680c	0.11494455
155	0xbdf1d064	-0.118073255
156	0xbe296a60	-0.16544485
157	0x3cead7a8	0.028667286
158	0xbde3513b	-0.11099478
159	0x3dc50290	0.096196294
160	0x3dae8945	0.08522276
161	0xbe3b68cb	-0.18301694
162	0x3c2c4942	0.010515513
163	0xbe21e60d	-0.15810414
164	0xbdbd6a1d	-0.09248755
165	0x3db7122a	0.089390114
166	0x3d9de978	0.07710546
167	0x3d60c712	0.05487735
168	0xbe3e22df	-0.1856799
169	0xbdf428a4	-0.11921814
170	0x3cc09d30	0.023512453
171	0xbe13eeb5	-0.14446528
172	0xbd4edf94	-0.05050619
173	0xbe1f00b4	-0.15527612
174	0x3cc1558a	0.023600359
175	0xbe17e5a9	-0.14833702
176	0x3cf783b2	0.030214164
177	0xbdc05ae2	-0.093923345
178	0xbe38f0f3	-0.18060665
179	0xbddafc2f	-0.106926315
180	0xbdb30db8	-0.08742851
181	0x3d8c6032	0.06854285
182	0xbc5dde46	-0.013541764
183	0xbdad0612	-0.084484234
184	0x3d8b7e23	0.06811168
185	0x3d457c59	0.04821429
186	0xbdedea25	-0.11616925
187	0x3d88b308	0.066747725
188	0x3d9b106f	0.07571494
189	0xbe53928c	-0.20661372
190	0xbca30105	-0.019897947
191	0xbe36af24	-0.17840248

fc3.bias f4 [3]
0	0x3cd59e66	0.026076507
1	0xbda2f9f0	-0.07957828
2	0xbdbd222f	-0.09235036

exp_avg f4 [64, 10]
0	0x00000000	0.0
1	0xbd140abf	-0.03614306
2	0xbdc32b3e	-0.09529732
3	0xbe2ca3b3	-0.16859321
4	0xbe5733a1	-0.21015789
5	0xbe63f6c0	-0.22262096
6	0xbe36e1b7	-0.17859541
7	0xbe21336e	-0.15742275
8	0xbe0d129a	-0.13776627
9	0xbe114d62	-0.14189675
10	0x00000000	0.0
11	0x40dc2d03	6.8804946
12	0xc098d8f8	-4.7764854
13	0xc1a67942	-20.809208
14	0xc1fc8489	-31.564714
15	0xc2111077	-36.26608
16	0xc23600f1	-45.50092
17	0xc24a4d74	-50.575638
18	0xc24330e1	-48.797733
19	0xc2970161	-75.50269
20	0x00000000	0.0
21	0x40861f63	4.1913314
22	0x4040884e	3.0083194
23	0x406fdd4d	3.7478821
24	0x407d49ab	3.9576213
25	0x40880887	4.251041
26	0x403adaea	2.9196115
27	0x40002a1b	2.00257
28	0x40841514	4.127573
29	0x4077fdec	3.8748732
30	0x00000000	0.0
31	0x40be056f	5.9381633
32	0x408724ca	4.223241
33	0x40a36983	5.10663
34	0x40ae85dc	5.4538403
35	0x40bb3025	5.849627
36	0x407e7825	3.976083
37	0x402b2f79	2.6747725
38	0x40b613ab	5.689901
39	0x40ac3b4d	5.382239
40	0x00000000	0.0
41	0x4123756f	10.21617
42	0xc0c465af	-6.1374125
43	0xc1f21970	-30.26242
44	0xc23aa14d	-46.65752
45	0xc2534757	-52.819668
46	0xc280add3	-64.3395
47	0xc2930f8a	-73.53035
48	0xc28bd06b	-69.90707
49	0xc2e08dd9	-112.27705
50	0x00000000	0.0
51	0x4062dccd	3.5447266
52	0x402e067f	2.7191465
53	0x40566da5	3.3504422
54	0x407271ee	3.7882037
55	0x40844091	4.1328816
56	0x4008e31b	2.1388614
57	0x40061334	2.094922
58	0x409028af	4.5049663
59	0x3ff8a8cc	1.9426513
60	0x00000000	0.0
61	0x40ebffb3	7.3749633
62	0xc0467840	-3.1010895
63	0xc18bfa5d	-17.497248
64	0xc1da401d	-27.281305
65	0xc20001e1	-32.001835
66	0xc22093ff	-40.144527
67	0xc2352062	-45.281624
68	0xc22da423	-43.41029
69	0xc287915a	-67.78389
70	0x00000000	0.0
71	0x397b6359	0.00023974235
72	0x3a599b08	0.00083009945
73	0x3ae5abcd	0.0017522514
74	0x3aeac8d8	0.0017912639
75	0x3b34a5c9	0.0027564636
76	0x3b44f4a8	0.0030053053
77	0x3b4c1c24	0.0031144703
78	0x3b3dd6b4	0.0028967084
79	0x3b1d557f	0.0024007258
80	0x00000000	0.0
81	0x404a4f42	3.1610875
82	0xc0be9af6	-5.956416
83	0xc1a77f50	-20.937164
84	0xc1fc672e	-31.55038
85	0xc20f6fc4	-35.859146
86	0xc2267d73	-41.62251
87	0xc23a0095	-46.50057
88	0xc23b6316	-46.846764
89	0xc28c85d4	-70.26138
90	0x00000000	0.0
91	0x403a8d5e	2.9148784
92	0x40026e28	2.0379734
93	0x4037c308	2.8712788
94	0x405c835b	3.4455173
95	0x4055d108	3.3408833
96	0x3fa235ad	1.267263
97	0x3fbcf81d	1.4763218
98	0x407d6e39	3.9598525
99	0x403d7186	2.960054
100	0x00000000	0.0
101	0x40cdbd48	6.4293556
102	0xc09fa982	-4.989442
103	0xc1af7b09	-21.935076
104	0xc206572c	-33.58513
105	0xc21cc1ae	-39.18914
106	0xc23f2f9f	-47.796505
107	0xc2560376	-53.50338
108	0xc24f8f02	-51.889656
109	0xc2a271a4	-81.221954
110	0x00000000	0.0
111	0x408a4f89	4.322209
112	0x403aeee1	2.92083
113	0x407336fb	3.8002307
114	0x408ee0d0	4.464943
115	0x407f07a5	3.9848416
116	0x3fc76942	1.5578997
117	0x3ff56d2b	1.917394
118	0x409c260d	4.879645
119	0x403e76a4	2.9759912
120	0x00000000	0.0
121	0x409cc220	4.898697
122	0x405c0f7d	3.4384453
123	0x4083a040	4.113312
124	0x408d66a5	4.41878
125	0x40978835	4.735377
126	0x404c1c3e	3.1892238
127	0x4007c401	2.1213381
128	0x4093e7db	4.6220527
129	0x408bf29a	4.3733644
130	0x00000000	0.0
131	0x40a179c0	5.046112
132	0xc04f8d73	-3.2430084
133	0xc170688b	-15.025523
134	0xc1b575ad	-22.682459
135	0xc1cdbf0c	-25.718285
136	0xc1fc8a3f	-31.567503
137	0xc2104a5d	-36.07262
138	0xc207a776	-33.913536
139	0xc25a16ee	-54.522392
140	0x00000000	0.0
141	0x409634a3	4.6939254
142	0xc046d388	-3.1066608
143	0xc164d304	-14.3015175
144	0xc1af0b2e	-21.880459
145	0xc1c56514	-24.674355
146	0xc1f14d29	-30.162676
147	0xc209cf44	-34.452408
148	0xc202a467	-32.66055
149	0xc252499e	-52.57189
150	0x00000000	0.0
151	0xbd16fd41	-0.036862615
152	0xbcb3b4de	-0.02193683
153	0xbc9f4f76	-0.01944707
154	0xbb61f277	-0.0034476796
155	0xbcc605c1	-0.024172666
156	0x3d478f9a	0.048720933
157	0x3d532aae	0.051554374
158	0x3d97d2fd	0.0741329
159	0x3e071f87	0.1319562
160	0x00000000	0.0
161	0xbd77c13e	-0.060487024
162	0xbdb16c07	-0.08663183
163	0xbe0e155b	-0.13875334
164	0xbe1afd53	-0.15135698
165	0xbe69e18b	-0.22839944
166	0xbe49d927	-0.19711743
167	0xbe397c77	-0.18113886
168	0xbd89d3c2	-0.06729843
169	0xbb950325	-0.004547494
170	0x00000000	0.0
171	0x3df171b3	0.117892645
172	0x3e731eaf	0.23742174
173	0x3dc46fbd	0.09591625
174	0x3e0dc7e1	0.13845779
175	0x3e0e798a	0.13913551
176	0x3e0f38d4	0.13986522
177	0x3dabcaf6	0.08388321
178	0x3d9c0455	0.07618014
179	0x3e3816a9	0.17977394
180	0x00000000	0.0
181	0x40a18773	5.0477843
182	0x4061114d	3.516681
183	0x4084d1b1	4.150597
184	0x408f9089	4.4863935
185	0x4099c8fd	4.8057847
186	0x404df1bd	3.2178795
187	0x4007a1c1	2.1192477
188	0x40968946	4.704257
189	0x408ee37b	4.4652686
190	0x00000000	0.0
191	0x40cb71d8	6.357647
192	0xc09203a7	-4.562946
193	0xc1a6bbb9	-20.841661
194	0xc1ff5708	-31.917496
195	0xc2107e19	-36.123142
196	0xc22e5dda	-43.591652
197	0xc246f62a	-49.740395
198	0xc23e720a	-47.611366
199	0xc2992081	-76.563484
200	0x00000000	0.0
201	0x3a4e585d	0.00078714435
202	0x3a0b480e	0.0005313166
203	0x3a40410c	0.00073339115
204	0x3a52b199	0.00080373284
205	0x3a4f24bb	0.00079018966
206	0x3a9d01c0	0.0011978671
207	0x3ad34c66	0.0016120791
208	0x3aa82f10	0.0012831409
209	0x3aa1d86a	0.0012347822
210	0x00000000	0.0
211	0x403fa803	2.9946296
212	0xc108f269	-8.559182
213	0xc1df1860	-27.886902
214	0xc22401b1	-41.00165
215	0xc23a6e6f	-46.607845
216	0xc25a87c1	-54.632572
217	0xc2700590	-60.005432
218	0xc27108ab	-60.258465
219	0xc2b8fe09	-92.49616
220	0x00000000	0.0
221	0x40464531	3.097973
222	0xc10a7077	-8.652457
223	0xc1e38937	-28.442
224	0xc227f19d	-41.98595
225	0xc2406b7d	-48.10497
226	0xc260da4f	-56.213192
227	0xc2745f79	-61.093235
228	0xc2755aa2	-61.33851
229	0xc2bc8a14	-94.269684
230	0x00000000	0.0
231	0x4055d8fd	3.341369
232	0xc0992d74	-4.7867985
233	0xc1910b5c	-18.130547
234	0xc1d62fe1	-26.773378
235	0xc1e78aa6	-28.9427
236	0xc204702b	-33.10954
237	0xc21dd503	-39.45802
238	0xc21b1735	-38.772663
239	0xc26626a5	-57.53774
240	0x00000000	0.0
241	0x405ff394	3.4992418
242	0x4029a947	2.6509569
243	0x4064f7cb	3.577624
244	0x4069e532	3.654614
245	0x407bc168	3.9336796
246	0x4033c501	2.8088992
247	0x40021e9c	2.0331182
248	0x40712050	3.7675972
249	0x405fbc19	3.4958556
250	0x00000000	0.0
251	0x403551ce	2.833118
252	0xc0d3437d	-6.6019883
253	0xc1aa3e16	-21.280315
254	0xc1fa3781	-31.277102
255	0xc2121dff	-36.529293
