viktor_ia_dqn_model.pth (torch, 84665 bytes, 24 tensors)

fc1.weight f4 [64, 4]
00000000: b252 1fbf 7be2 58bf 8b1d d3be 9358 203e
00000010: 21ad 483e 8e02 b73e 44ba 2e3f 0aec 973d
00000020: cb7f ed3e 0bac e43c 7b01 fe3d 7337 7d3c
00000030: 24bd d83c 83a9 cc3e ad8a 71be a2fa 76bd
00000040: 27e1 27bf 9628 58bf 67f4 57bf ccda 263e
00000050: b829 a3bd a428 46be 4c06 793e 604e abbd
00000060: c349 073f d839 e6be 7296 0a3f b0c6 0a3f
00000070: b360 fd3e 5c9f ba3e fdcf c8bc 9337 c43e
00000080: 2f7b 24be fac1 cf3e cb2a ce3e 4d70 0a3f
00000090: 7081 4bbf 40b5 6bbf 8499 87bf 2224 bd3e
000000a0: 9b45 55bd 1867 e53e a7b3 393e 2248 e8be
000000b0: 95b1 f43e 840d d43e 5234 573f 2d60 023f
000000c0: 1a79 f4be 94ed 99be 006c 51be f2e6 9cbe
000000d0: 4844 aa3e 2b3a 123e 2c7d 1abf 3196 073b
000000e0: 4005 a9bd 96d2 013f f781 403b 7f3d 303d
000000f0: 1e66 83be 3cbd 14be b8a7 8bbd ea5c 8dbe
00000100: 143a 39be 48c5 5ebe d05b 80be 70d7 e0bd
00000110: 9a92 c9be 5066 3cbd 88d7 ffbe c4d1 5bbe
00000120: 61d5 d33d 585b 9d3e 305b 16be 4edd f43e
00000130: 8b86 263e b50a 30be 5dda 5d3f dc6b fa3e
00000140: 7146 3dbf 0199 56bf 5d9f 3abf 3230 5f3e
00000150: 727c d43e ca0b fdbd 42d9 e93e aeea fe3d
00000160: 08fc 953e ec2a 96be 2387 813e 397f a0bd
00000170: e89b e0be b0ac 13bd 70ad 833e 54a8 17be
00000180: eafe 733c a64d d53d 2a19 a1bd 64d4 e63e
00000190: 6556 103f aea3 c73d 5120 bc3e 322b 463e
000001a0: 6d10 e43c 9471 e83e 5b83 313e adba 52bd
000001b0: 2f01 0c3f 1e49 d83e 69bf 5fbc a898 c93e
000001c0: 0fb0 553d 611d d63e 7e2a 953e 2079 e2bd
000001d0: 621c a4bd 8541 9cbe d41c 8dbe 0fa5 0d3f
000001e0: 4d13 4bbd 779e 503c a6ba 64be e14e e13e
000001f0: 655d 9d3b f4fb 16bd 5ce1 f63e d1b8 843e
00000200: c929 4bbf 2d3c bcbd ca11 33bf c15a 643e
00000210: 2ea2 6cbe de9d a93e a5dc 53bf 192a 993e
00000220: eee6 e73d 3eef 0ebe 64fa 9bbd ef92 e43e
00000230: 56b6 813e e18e 323f 5894 8ebd 57a8 bebd
00000240: a0a6 c2be c8f6 b3be be3a 873e 3c4a 5dbe
00000250: a75e 803e a9f0 55be 83bd 433c 82e1 eb3e
00000260: b88e 033f ff3a 9bbe 3708 b73e 9243 a53e
00000270: c62a a33e d3ec 19bf d729 d23e e970 193e
00000280: c3d1 bc3e 109d 26be fbbb 1e3f 5889 823e
00000290: df31 bd3e 77ce 3d3e c2ce a93d eff6 573e
000002a0: 06fb fc3e 712a f4bd c55e 6c3e 8853 e93d
000002b0: c089 f33c 3081 b1bd 18a9 023e 30c8 aabe
000002c0: 07b4 cb3e 81f8 503e 27c3 aabc d12d f93c
000002d0: ec5c 6a3e f3a9 393e 7fa8 543e a818 5cbd
000002e0: 01a3 75be 236d bd3e 2a51 c83e 3a3d fa3b
000002f0: 763a 153e 6e7e aabd 93d7 7a3f 1c05 823e
00000300: d40f ad3e bdff 683e a5da a53e b7dd af3e
00000310: 038e 90bc a4ba 1e3f 6e50 0e3f cfe7 6dbe
00000320: 495e a73e cfd5 11bf 30cc 163f 958e 623d
00000330: f633 ccbe e014 793e b883 18bf 4c05 593e
00000340: 0472 8c3e b176 ad3c 684e 83bc 2c8a c43e
00000350: ab22 c23e 7261 ef3e 4cb5 5d3f 1e86 c13d
00000360: 964d 703e a468 19bf 51c3 d23e 8a3f 993d
00000370: c663 dcbe 6ddc 0b3f bb77 81bf 72c2 dc3d
00000380: 8d3b 65be c083 c23d df5b f4be 0680 05be
00000390: 004c a13c c0e3 0fbe 08b4 b93e d4f5 c2be
000003a0: c16c 65bf e6ca 51bf c335 16bf 9a1e b53e
000003b0: c6d2 563e 5ce9 ce3e 2fda 233f ad8f 0a3f
000003c0: 8b5e 1bbf e680 42bf e76c c0be b186 173e
000003d0: 41eb 95be 05ef 0a3f 277c 35bf d5af e43d
000003e0: c8af 96be bc67 46be ac48 813e 90e5 19be
000003f0: 822b 5b3e f73e 143e c60a febe 9ef0 77bf
-0.6223556 -0.8472058 -0.41233477 0.15658788 0.19597293 0.35744137 0.6825297 0.07418068
0.4638656 0.027914068 0.12402626 0.015455115 0.026457377 0.39973077 -0.23588057 -0.060297616
-0.6557793 -0.8443693 -0.84357303 0.16294402 -0.079669416 -0.1935144 0.24318808 -0.08364558
0.52846926 -0.44966006 0.5413581 0.54209423 0.49487838 0.36449707 -0.024513239 0.3832365
-0.16062616 0.4057768 0.40267023 0.5407761 -0.7949438 -0.9207344 -1.0593724 0.3694163
-0.052068334 0.44805217 0.18134938 -0.45367533 0.47791734 0.41416562 0.8406421 0.50928
-0.47748643 -0.3006407 -0.20451355 -0.30644947 0.3325522 0.14280002 -0.6034725 0.0020688886
-0.082529545 0.50711954 0.002937434 0.043027397 -0.25663847 -0.14525312 -0.06819099 -0.2760995
-0.18088561 -0.21754944 -0.25070047 -0.109785914 -0.3936966 -0.04599601 -0.49969125 -0.21466738
0.10343433 0.30733752 -0.14683223 0.47825092 0.16262262 -0.17191584 0.8666132 0.48910415
-0.7393561 -0.83827215 -0.7289942 0.21795729 0.41501194 -0.12355764 0.45673567 0.12447105
0.29293847 -0.29329622 0.25298414 -0.07836766 -0.43868947 -0.03605336 0.2571826 -0.14810306
0.014892319 0.10415201 -0.07866128 0.45083916 0.5638183 0.09748016 0.36743405 0.19352415
0.027839864 0.45399153 0.17335264 -0.05144756 0.54689306 0.42243284 -0.013656476 0.3937428
0.052169856 0.4181929 0.2913398 -0.11058259 -0.08013226 -0.30518737 -0.27561057 0.55329984
-0.049578954 0.012733093 -0.22336826 0.44005492 0.0048023933 -0.036861375 0.4821881 0.25922254
-0.79360634 -0.09191165 -0.6994902 0.22300245 -0.23108742 0.33128256 -0.8275855 0.2991493
0.11323343 -0.13958451 -0.076161176 0.4464335 0.25334424 0.69749266 -0.06961888 -0.09309452
-0.3801775 -0.35149217 0.26412004 -0.2161035 0.25072214 -0.20892586 0.011947039 0.46070486
0.51389647 -0.30318448 0.35748455 0.32278115 0.3186857 -0.6012699 0.41047546 0.14984478
0.36878785 -0.16270852 0.62005585 0.2549541 0.3695211 0.18535791 0.08291389 0.21090291
0.49410266 -0.119221576 0.23083027 0.113928854 0.02972877 -0.08667219 0.12759817 -0.33355856
0.39785787 0.20407297 -0.020845009 0.030417355 0.2288701 0.18131237 0.20767401 -0.05373445
-0.23987962 0.36997327 0.39124423 0.0076366933 0.14573082 -0.08324896 0.9798519 0.25394523
0.33801138 0.22753806 0.32393375 0.34348843 -0.017645841 0.6200354 0.55591476 -0.23232959
0.3268912 -0.5696687 0.58905315 0.055311758 -0.39883393 0.2432437 -0.59575987 0.21193427
0.27430737 0.02117476 -0.016028598 0.38386667 0.37917075 0.46754032 0.8660476 0.09449409
0.23467097 -0.59925294 0.4116464 0.07482822 -0.4304487 0.5463322 -1.0114664 0.10779275
-0.22385998 0.094977856 -0.47726342 -0.13037118 0.01968956 -0.14051723 0.36270165 -0.38078177
-0.8961907 -0.81950223 -0.58675784 0.3537491 0.20978841 0.40412414 0.64004797 0.5412548
-0.60691136 -0.75977933 -0.37583086 0.14797474 -0.29281047 0.54270965 -0.70892566 0.1116635
-0.29430985 -0.19375509 0.25250757 -0.15028977 0.21403316 0.14477144 -0.49617594 -0.9685153

fc1.bias f4 [64]
00000000: adf4 8fbe bbd5 85be 15f4 be3c bcfa 1f3e
00000010: 2bc5 bdbe 38fd 8e3d 29f3 d13e 6c31 f43e
00000020: 4748 afbe 256f 803e a2e2 2f3d 081f 7e3d
00000030: 009c e3ba a5e6 283e f0da 89be b8a3 d03e
00000040: a459 c43e ae88 d73e fac9 903e b4ef 19be
00000050: dfe1 64be c2f8 b23e 166c 7bbd 389a d43d
00000060: 8d03 5b3e 4791 fa3e 9689 213e 41ee a0be
00000070: 0cc1 023f 9b40 38be 4226 b3be d8a7 e0bd
00000080: 242d 03bf a302 09bf 26d9 2a3e ace9 053f
00000090: f4fa 93be c987 713e 39d2 c0be c75c 73be
000000a0: 04d5 90bc 2b06 8ebe 7e85 8abe 82e3 8ebe
000000b0: d01a 6a3e 3618 e73c 926f 5bbd 078b e93e
000000c0: e115 a6be 4cd8 363e 4829 f9bd 4d29 d33e
000000d0: 1020 e1be 7fea 7fbd 38dc 8bbd 4c81 cabd
000000e0: ee72 ee3c f811 e83e d50b b5bd 3b69 cdbe
000000f0: e271 e1bd 696f 91be 8cb6 8cbe 5043 bbbd
-0.2811636 -0.26139626 0.023309747 0.15622991 -0.3706449 0.069818914 0.4100583 0.47693956
-0.3423483 0.25084797 0.042940743 0.062041312 -0.0017365217 0.16494234 -0.2692485 0.40749907
0.3834964 0.42096466 0.28279096 -0.15032846 -0.22351788 0.34955412 -0.061382376 0.103809774
0.21388073 0.48938963 0.15775141 -0.31431773 0.51075816 -0.17993395 -0.34990126 -0.10969514
-0.51240754 -0.5351965 0.16684398 0.5230968 -0.289024 0.23586954 -0.37660387 -0.2376586
-0.017679699 -0.2773908 -0.2705497 -0.2790795 0.2286179 0.028209787 -0.0535732 0.45613882
-0.32438567 0.17855948 -0.12166077 0.41242447 -0.43969774 -0.062479492 -0.06829113 -0.09887943
0.029107537 0.4532621 -0.088401474 -0.40119347 -0.110080495 -0.28405312 -0.27483022 -0.09143698

fc2.weight f4 [64, 64]
00000000: dd25 b53d f5a7 08be f9a2 8ebd 204f 29bd
00000010: 3dc9 a43d dc14 07bd 35ad 483c a722 84bd
00000020: 9522 283d c13e 8cbd 30bd acbd 3e43 e5bc
00000030: 2c86 b23d 669a efbc 2a68 833a b4cb 523d
00000040: d466 593d 40b8 12bb 614e c13d e644 9ebd
00000050: ab63 7bbd cce5 eebd cc15 953d 46a7 a63d
00000060: 0aaf 933c c65d 223d 40b3 ab3b 4eb4 c53d
00000070: 7ecc ad3d f079 2fbc d8c8 06be 06f7 c73d
00000080: f53f 8ebd b594 aebd 6bd5 d4bd 24c6 99bd
00000090: 82f5 d1bd 3c3e 90bd 1fca 233d 8978 153d
000000a0: f4ba ac3d 81bf 04bd 2969 933d 3200 8bbd
000000b0: 88f6 02be 14b3 693d 821e ee3d 53dd 49bd
000000c0: b68a c83d b220 8f3d 8786 043d 10f7 9f3c
000000d0: 4245 03bc 6e52 c7ba caef d5bc 62e4 8bbb
000000e0: c6dd c63d 6807 59bd e887 dfbd 94d1 edbd
000000f0: 72be 943d 88cb d03d a0f6 5e3d 5851 16bd
00000100: 4419 c63d 4034 9b3c c0b6 fbbb fc18 aabd
00000110: 74d7 d2bd bcc3 5d3d 7028 e0bc 82a4 b3bd
00000120: ca20 96bd 84c0 213d 1cd9 743d 0eb9 a7bd
00000130: 3ecb aa3d eadf 87bd 72e4 d7bd 36ba e4bd
00000140: ca1f d4bd a42a b23d 622e bebd a2e0 99bd
00000150: 581e 223d 2892 0b3d eaf3 c43d 4426 36bd
00000160: 2477 26bd 00cf 233c a848 9bbc 0450 1d3d
00000170: 1c3a 28bd b8b7 25bd 085f f63c 281f fabc
00000180: 54be 2fbd 9842 abbd 20d7 e83d b835 843c
00000190: d4b4 723d 0052 41bd 52df 9bbd fef9 90bd
000001a0: fcdc 56bd 60c1 69bd 1c59 02bd c0ba 08bd
000001b0: fade 8cbd 5055 363d 901c 0b3c 0420 283d
000001c0: 0065 003a e0e1 79bc 60fd a83c 80a4 713d
000001d0: 0254 a93d 909a 4cbd b89f ecbc cc7b 17bd
000001e0: d8d2 863d 5e6c 983d 00d5 8fbd 9015 33bc
000001f0: 2a7d c63d 3e23 b6bd d2e2 82bd 7421 2abd
00000200: 74ac 13be 3cba 0abe e765 443d 292c 06be
00000210: 8ad3 81bd 1cbe 4ebd fa0b 833d 39d1 d33c
00000220: 4ae7 973d 3487 acbd e04d 7cbd 2629 03be
00000230: ee22 cb3d 6c52 473c 852c 18be c4da f83d
00000240: ca2a b33d a8fe f63c 3b7d bcbc 8f58 833d
00000250: 9d1e 74bd dba0 c73d f861 663e ae1e bc3d
00000260: ec36 f13c d372 7dbd 62ad b73d 2977 0abe
00000270: 7290 753d 1302 0fbe 4243 9a3c 8f1b 223d
00000280: 1058 52be 9f72 a03d f426 28bc 1259 1abd
00000290: 9485 333d dcf2 07be d44b ef3d e095 173e
000002a0: 13c6 83bd d146 813d 4ce6 933d f832 8dbc
000002b0: 3b7f 51bd a32c afbd 72e2 5f3b 42d9 65bd
000002c0: a9cb b33c bf64 aabd 5dcc 2f3d edfb 30be
000002d0: 1b30 a33d 5ecc a33d 52f1 3e3d eb15 a7be
000002e0: 3480 fa3d 08b2 fe3c 3400 17bd 83c5 debd
000002f0: 9bfe 1ebe 252c 8fbd 547d d7bd 6c30 413d
00000300: 6c3b 7a3d 929a 373d 0e3e a9bc 2081 e1bd
00000310: 52a2 8dbd 5883 3ebd a0b5 e23a 0fa5 e93c
00000320: 0df7 f8bd f884 b6bd 887f ffbd 5359 d53d
00000330: 00e5 6d3b aa83 66bd e06f ddbd b295 cebd
00000340: f014 65bd 78e7 8dbd 3fcf d03d 0d8f 85bd
00000350: 8aec d2bd 3f72 f23d 88b3 193c 481c 3b3d
00000360: 3800 4a3c af35 aebd c800 ab3d 36a1 05be
00000370: e0f2 a73b c75c 8abd 1915 e5bd 9f65 d4bd
00000380: f036 3cbd 1a86 0fbc 3fcb f4bd 313a b5bd
00000390: 8097 edbd 8122 a2bd 8b72 d63d 037c dd3d
000003a0: b8af 3e3c ded4 d6ba 6ae9 573d 1458 14bd
000003b0: c2ec 70bd 3806 5b3d 18f5 e5bc 8a47 7cbd
000003c0: 31d2 433a a0e8 6e3d d2a9 763c f11f d1bd
000003d0: f148 96bd 3273 0b3d b959 8f3d 7aca ffbd
000003e0: 6001 c93b 04fc ae3d f064 ce3c 287a 2abc
000003f0: 98cc bb3c 30e3 ee3d d65b f8bd a00c d3bd
0.088451125 -0.1334532 -0.06964678 -0.041335225 0.08046196 -0.032978877 0.012248327 -0.06451922
0.041048605 -0.06847907 -0.08434522 -0.027986165 0.087169975 -0.029248428 0.001002555 0.051463798
0.05307658 -0.0022387654 0.09438778 -0.07727985 -0.061374348 -0.11664924 0.07279548 0.081373736
0.018027801 0.03964021 0.005239874 0.09653531 0.084862694 -0.0107102245 -0.13162553 0.09763913
-0.069457926 -0.08524457 -0.10392269 -0.075084955 -0.10251905 -0.0704312 0.03998768 0.036491904
0.08434096 -0.032409195 0.07197792 -0.06787147 -0.12789357 0.057055548 0.11626913 -0.049283337
0.09792082 0.06988658 0.032354858 0.019526988 -0.008012118 -0.0015207061 -0.026115317 -0.0042691687
0.09710269 -0.05298558 -0.10914594 -0.116122395 0.07262887 0.101950705 0.05443442 -0.03669867
0.09672788 0.018945813 -0.0076816976 -0.08305547 -0.10295001 0.054141745 -0.027363032 -0.08771612
-0.07330473 0.039490238 0.059777364 -0.08189593 0.083395466 -0.06634505 -0.10541619 -0.111683294
-0.10357626 0.08699539 -0.092861906 -0.075135484 0.03957972 0.034074932 0.096168354 -0.044470087
-0.040640965 0.009998083 -0.018955544 0.038406387 -0.041071042 -0.04045841 0.030074611 -0.030532435
-0.04290612 -0.08362311 0.11369157 0.016138896 0.059254482 -0.047197342 -0.07610954 -0.07078932
-0.05245684 -0.057069182 -0.031823263 -0.033381224 -0.06878467 0.044514954 0.008490697 0.041046157
0.00048978627 -0.015251607 0.020628631 0.05899477 0.08267976 -0.04995209 -0.028884754 -0.036983296
0.06583184 0.074425444 -0.070230484 -0.010930434 0.09691842 -0.08893441 -0.06390919 -0.04153581
-0.14421254 -0.13547605 0.047948744 -0.13102783 -0.06339176 -0.05047427 0.06398769 0.025856601
0.07417162 -0.084242254 -0.061597705 -0.12808666 0.09918772 0.012165647 -0.14860733 0.12151101
0.08748396 0.030150726 -0.023008933 0.064133756 -0.059599508 0.097474776 0.2249831 0.09185539
0.029445134 -0.061877083 0.08968617 -0.13522018 0.059952207 -0.13965635 0.0188309 0.039577063
-0.20541406 0.07834362 -0.010263193 -0.0376826 0.043828562 -0.13276237 0.11684385 0.14803267
-0.06434264 0.06312335 0.0722166 -0.017236218 -0.051146727 -0.08553436 0.0034162072 -0.056115396
0.021947699 -0.08319997 0.042919505 -0.17283602 0.0796816 0.07997964 0.04661686 -0.3263391
0.12231484 0.031090751 -0.036865428 -0.10877516 -0.15526812 -0.06990842 -0.10521951 0.04716532
0.061091825 0.044825144 -0.020659473 -0.11010957 -0.06915726 -0.046511978 0.001729656 0.028521089
-0.12156496 -0.089120805 -0.124754965 0.10417428 0.0036299825 -0.05627791 -0.10812354 -0.10087146
-0.05592817 -0.06928915 0.10195779 -0.065214254 -0.102990225 0.11838197 0.0093811825 0.045681268
0.012329154 -0.08506333 0.083497584 -0.13049778 0.0051253885 -0.06755977 -0.11185665 -0.10370945
-0.04595083 -0.00876 -0.119528286 -0.0884899 -0.11601162 -0.07916737 0.10471066 0.10814669
0.011638574 -0.0016390344 0.052712835 -0.03621681 -0.05881954 0.053472728 -0.028070971 -0.061591662
0.00074699806 0.058327317 0.015055137 -0.102111705 -0.07338131 0.034045406 0.06999535 -0.12489791
0.006134197 0.08544162 0.025194615 -0.010405101 0.022924706 0.11664426 -0.12126891 -0.103051424

fc2.bias f4 [64]
00000000: 1b12 53bd 4c1a 25bd 573b e53d c987 b4bd
00000010: 54a3 69bd a8fc 0f3c 296e 883d 30ba bdbc
00000020: 6078 7b3d 87b7 dbbd 50d3 adbd eb60 763d
00000030: 8577 c83c 7a82 ab3d 454f 9c3d e942 803e
00000040: 9292 96bd 3699 2f3e 0899 c5bd 5050 0fbe
00000050: 29ca c13d fcbe 38bd 90c2 22bc 4965 b5bd
00000060: f30a aebc d866 5a3e e0a5 2bbc d4d6 033d
00000070: fc72 a53c 4fc8 bebc cca8 40bd 580b b43d
00000080: 7cf3 bf3d 182b 9c3c 44e9 c63d f57a 1fbd
00000090: 43e5 b43d 4c5a 70bd 6e74 1a3d a444 07bd
000000a0: 70b7 0e3c fd1b 2e3e 5a53 b1bd 05b9 afbd
000000b0: b5b8 863d 80d9 22bb f459 3a3d 321d ddbd
000000c0: d843 1dbd 1de1 71bd d856 3e3e aabd 443e
000000d0: a47b 89bd d9df 07be b0a5 3f3e 7721 9fbd
000000e0: 98f0 85bc 7369 7b3d 1729 7d3d e9b2 a03d
000000f0: b28d 8cbd e383 c0bc 2d9b 2c3e 6be4 183d
-0.05153094 -0.04030828 0.11192959 -0.088149615 -0.057040527 0.008788265 0.066616364 -0.02316007
0.061394095 -0.107283644 -0.0848757 0.060151022 0.024471054 0.08374496 0.07632307 0.25051048
-0.07352175 0.17148289 -0.09648329 -0.1399548 0.09462387 -0.045104012 -0.009934083 -0.08857209
-0.021245455 0.21328294 -0.010476559 0.032187298 0.02019643 -0.023288874 -0.047035977 0.08791226
0.09372613 0.019063517 0.09712461 -0.03893562 0.08832791 -0.058679864 0.037708692 -0.033024445
0.008710727 0.17002864 -0.08658476 -0.085802115 0.06578199 -0.0024848878 0.045495942 -0.10796584
-0.03839478 -0.059052575 0.18587816 0.19212976 -0.06713036 -0.13268985 0.18715549 -0.07770055
-0.016350076 0.06137986 0.061806764 0.078466244 -0.06862964 -0.023500388 0.1685607 0.03732721

fc3.weight f4 [3, 64]
00000000: 3c1a e3bc 40a7 f0bd 504f e6bd f8cd 04bc
00000010: 8ccf 8fbd e9c6 86bd c57b 293e e84d c83c
00000020: 86a4 6e3c 8f0a d0bd 0aa9 813d 7ec5 1f3e
00000030: 2433 25bd 80ed 50bb b666 293e 2c19 623e
00000040: d82e 393d 7354 213d 74e3 c43d f559 3c3c
00000050: 74a5 743d c009 e53c 38c2 d33c 70f7 85bc
00000060: 30c7 bebb fb0b 653e 7058 583c 4a14 f1bd
00000070: 50e1 a1bc d772 babd 2e2e 8d3d 046b aa3d
00000080: 59f2 d9bc e666 82bd 64a6 cdbd 51ce 31be
00000090: 6d7c ef3d 480d e9bc 0a14 1f3d 6242 203e
000000a0: da78 d7bd 0cbb 703e 9ba8 a0bb 514a 92bd
000000b0: 38c3 b43d 38aa 21bd f2ab d83c 3033 fa3c
000000c0: 0c30 78bd da1e 093c 5bf8 603d d8f3 423d
000000d0: ec11 40bc 4082 76bd f5e2 be3d 4a72 d53d
000000e0: e8a1 bf3d a53b eebc 11e1 c03d 2f89 843d
000000f0: eef9 a4bd 34d9 743c 6e41 dc3d 901f 4f3e
00000100: 7b42 88bd 3a05 80bd 8926 1d3d 68e4 b43c
00000110: 004b 47ba 563c 9b3d 4117 263e a09e c3bb
00000120: 2472 d5bd 39e0 eebd 002f c83c d931 f8ba
00000130: ff19 9e3d 9a5f a23d 7b81 373e 99c4 a43d
00000140: ba15 aabd 0759 203e 88e5 c73c 1ebc 86bd
00000150: 0326 b0bd e065 593d b88a ad3d 9509 993d
00000160: 1773 bebc 2d33 3f3d 1089 c0bc f03f 273d
00000170: fe4b 5cbd d1c5 a1bc 2850 ddbc 0a6a e53d
00000180: f15d 673c 1c59 d4bd 2387 debd b4a0 68be
00000190: 8a0b 323e 72d7 983d 645a 813d 537f 333e
000001a0: d8f8 51bd 7a27 943e c77b de3d e097 593b
000001b0: add1 cf3d e0de ffbb 046e 4c3d 7aca d3bd
000001c0: 5609 e43d 4c14 1abe aa3b 853e 221a 9a3d
000001d0: a114 81bd dda9 d7bc 7f78 0b3e 42ad ad3d
000001e0: 8060 0c3c 4d38 c5bd 3564 693d a198 2f3e
000001f0: f0c7 afbd 1636 c83d 6d46 453e 6ac4 56bb
00000200: 3a5c debd b0e1 bb3c 4822 0dbe 807b 81bb
00000210: b8c2 b83c a303 c3bd 5d57 cb3c c43e eebd
00000220: c3c4 503e 9958 8dbd 005f a3bd 4902 3c3d
00000230: e6bc bfbd b4ba 42bd 34bc 1a3d dfc9 313d
00000240: 2f24 cebd b926 9bbe 1015 913d f6ab febc
00000250: 08b6 fcbd 48cc 4abd dcad b4bd f8ae e4bd
00000260: 8cbe 2d3d 0be9 7e3c 0819 c83d 5068 14bd
00000270: 5045 bebd 71e7 b9bd 48d9 39bd 70ed 733c
00000280: e684 ba3d 8482 d63d 94d5 c4bc c5fa bc3d
00000290: 0a6e 843d 641c 8e3d 33b1 29bc 12c5 3bbe
000002a0: 328d ccbd e80d b13c f536 823d cdc0 64bd
000002b0: 6c81 bcbd 3869 563d 4514 afbd b881 bd3d
000002c0: 1044 e3bc a5ac 303e da8e 893d 0863 9a3b
000002d0: da08 a4bd 5cee 2abd 46af 9b3d 5eb1 56be
000002e0: b00c 523d f016 253c e816 84be ed19 5e3d
000002f0: bc4e 31bd 048d b43d 9556 f23d f2f0 c33c
-0.02772247 -0.117506504 -0.112455964 -0.008105747 -0.07022008 -0.06580908 0.1655112 0.024451211
0.014565593 -0.10158264 0.0633107 0.15602681 -0.040331975 -0.0031879842 0.16543087 0.22079915
0.04521069 0.039387178 0.09613696 0.011496057 0.0597281 0.02795875 0.025849447 -0.016353339
-0.005822085 0.22367851 0.013204679 -0.11771448 -0.019760758 -0.09103935 0.06893574 0.08321193
-0.026604818 -0.063672826 -0.10041502 -0.1736386 0.11693654 -0.028448716 0.03883747 0.15650323
-0.105210975 0.23508853 -0.004902912 -0.07143081 0.088262975 -0.039468974 0.026449177 0.030541986
-0.060592696 0.008369172 0.05492435 0.04759583 -0.011723023 -0.06018281 0.09320632 0.104221895
0.09357053 -0.029081175 0.09417928 0.06471478 -0.08055483 0.014944363 0.10754667 0.20226884
-0.06653305 -0.06250997 0.038366828 0.022081569 -0.00076024234 0.075798675 0.16219808 -0.0059698373
-0.10422161 -0.11663861 0.024436474 -0.0018935754 0.07719802 0.07928391 0.17920487 0.080453105
-0.08304925 0.15658961 0.024401441 -0.06578849 -0.08601 0.05307567 0.08473724 0.07472531
-0.023248238 0.046679664 -0.023502856 0.04083246 -0.05378341 -0.019747647 -0.02701576 0.11201866
0.0141215185 -0.10368559 -0.10865619 -0.22717553 0.17387214 0.07462968 0.06316069 0.17529039
-0.051262707 0.28936368 0.108634524 0.0033202097 0.10147414 -0.007808551 0.049909607 -0.10341354
0.11134593 -0.15046805 0.26022083 0.07524516 -0.06302763 -0.026326114 0.13620184 0.08480312
0.008567929 -0.09629879 0.05698033 0.17148067 -0.08583057 0.09775941 0.19265147 -0.003277088
-0.108574346 0.022934765 -0.13782609 -0.00395149 0.022553787 -0.09522178 0.024821931 -0.11633065
0.20387559 -0.06901664 -0.07977104 0.045900617 -0.093622014 -0.047541335 0.03777714 0.04340541
-0.10065495 -0.3030298 0.070840955 -0.031087857 -0.12339407 -0.049511224 -0.088222235 -0.11166185
0.042418048 0.015558491 0.09770399 -0.036232293 -0.09290564 -0.09077347 -0.04537323 0.0148881525
0.091073796 0.10474113 -0.024027623 0.09227518 0.06466301 0.06939009 -0.010357189 -0.18336895
-0.09987868 0.021613076 0.063581385 -0.05584793 -0.09204373 0.05234644 -0.08548788 0.092532575
-0.027742416 0.17253359 0.067167 0.0047115125 -0.08009501 -0.041731223 0.0760179 -0.20966098
0.05128163 0.0100762695 -0.25798726 0.054223944 -0.043287978 0.08815959 0.118329205 0.023918603

fc3.bias f4 [3]
00000000: aed9 903d 4313 9c3c 5efb 3e3e
0.07072769 0.019052153 0.18650576

fc1.weight f4 [64, 4]
00000000: 7c92 1fbf f731 59bf ac88 d3be 2eee 1d3e
00000010: d2ae 493e 7fdd b73e 03ff 2e3f 7133 9b3d
00000020: 84fb ed3e 38ae ef3c d7c3 ff3d 4ade 893c
00000030: d776 d13c a4e7 cb3e 4461 72be ecc3 7bbd
00000040: 2924 28bf 987d 58bf da28 58bf 4630 243e
00000050: b829 a3bd a428 46be 4c06 793e 604e abbd
00000060: cfa1 073f c211 e5be b0ed 0a3f b74f 0b3f
00000070: 4d07 fe3e 39bf bb3e 02ef bcbc 0640 c53e
00000080: 8593 23be f875 d03e cc94 ce3e 8bd1 0a3f
00000090: 8c86 4bbf 72bc 6bbf df9a 87bf a8f8 bc3e
000000a0: 1ae4 5abd 3488 e43e 4221 393e bbb5 e8be
000000b0: 91fb f43e 0d76 d43e b759 573f f79b 023f
000000c0: 1a79 f4be 94ed 99be 006c 51be f2e6 9cbe
000000d0: 2ee8 a93e 1317 113e 14a6 1abf bb89 763a
000000e0: 8e9e a7bd 6822 023f 03b5 643b aa42 343d
000000f0: 1e66 83be 3cbd 14be b8a7 8bbd ea5c 8dbe
00000100: 143a 39be 48c5 5ebe d05b 80be 70d7 e0bd
00000110: 9a92 c9be 5066 3cbd 88d7 ffbe c4d1 5bbe
00000120: 108c d53d 050c 9e3e 9254 15be 7a9a f53e
00000130: 38af 273e 6431 2ebe 4e25 5e3f 145f fb3e
00000140: cf68 3dbf 1bc9 56bf 83b0 3abf 2930 5d3e
00000150: 84ff d43e a504 fabd fa5c ea3e a40a 013e
00000160: b7b4 953e 579f 96be a77a 813e 10a3 a1bd
00000170: e89b e0be b0ac 13bd 70ad 833e 54a8 17be
00000180: fc80 833c f258 d93d 051c 9ebd 2df8 e73e
00000190: 849f 103f 9d6d cb3d 28c8 bc3e 1b1f 483e
000001a0: b3aa de3c 41e9 e73e bc28 313e fdcd 54bd
000001b0: 1b4e 0c3f ac58 d93e e2ff 49bc c1a6 ca3e
000001c0: 49ef 523d 8b83 d53e 32eb 943e 7e08 e4bd
000001d0: 8bb3 a5bd c6c0 9cbe 5df2 8dbe c421 0d3f
000001e0: 268b 47bd dac0 673c 26ff 63be de06 e23e
000001f0: eb3b be3b 22db 10bd fd3f f73e 2c72 853e
00000200: 8f2d 4bbf 7978 bcbd f313 33bf 79ec 633e
00000210: cdac 6cbe 9aa3 a93e 5c13 54bf 28de 983e
00000220: 4960 ea3d 3eb3 0cbe 4729 99bd 39b6 e53e
00000230: b7c0 813e bc92 323f 7047 8ebd 0dc8 bebd
00000240: a0a6 c2be c8f6 b3be be3a 873e 3c4a 5dbe
00000250: c0fe 803e 199e 53be 4285 593c bdec ec3e
00000260: 03e0 033f 5017 9abe 3cc5 b73e 576a a63e
00000270: 7bf7 a23e d7fd 19bf ee14 d23e 5a4a 1a3e
00000280: a368 bd3e 7b65 24be 0905 1f3f 666c 833e
00000290: 22c4 bd3e d6ae 3f3e 063b ac3d a7ce 593e
000002a0: ee9c fd3e de42 f0bd 9a92 6d3e 21bf ec3d
000002b0: c089 f33c 3081 b1bd 18a9 023e 30c8 aabe
000002c0: 6947 cc3e 4bd9 523e 3484 a0bc 4a84 033d
000002d0: 0087 6a3e baca 393e 6907 553e 80b7 5bbd
000002e0: f8b5 75be a268 bd3e 06cc c83e b0c6 123c
000002f0: eb4d 163e 99d8 a6bd 1a1d 7b3f 7ce0 823e
00000300: fd79 ad3e 183e 6a3e ff3c a63e 917e b03e
00000310: d322 94bc 6e9a 1e3f 125b 0e3f 529f 6dbe
00000320: 32d8 a73e 945e 11bf c7eb 163f 1b21 673d
00000330: d8b6 ccbe 1519 783e 6da1 18bf 9d2c 583e
00000340: 2519 8d3e 28f1 bd3c 23c8 6ebc 3aab c53e
00000350: 60ab c23e ca3f f03e b3f4 5d3f 9877 c43d
00000360: ce0f 703e 2f70 19bf b99f d23e 0634 9a3d
00000370: 4f7e dcbe 57c2 0b3f 609e 81bf 079d d93d
00000380: 8d3b 65be c083 c23d df5b f4be 0680 05be
00000390: 004c a13c c0e3 0fbe 08b4 b93e d4f5 c2be
000003a0: 5f93 65bf d4f9 51bf c740 16bf 7c4b b43e
000003b0: a4ca 573e dfa9 cf3e 0617 243f fbfc 0a3f
000003c0: 1d9f 1bbf 75d2 42bf f7d6 c0be 90fd 143e
000003d0: 72e2 96be bf7e 0a3f c6d7 35bf fbbf e03d
000003e0: c8af 96be bc67 46be ac48 813e 90e5 19be
000003f0: a3b3 5a3e e358 133e 9ef1 fdbe 74ea 77bf
-0.6233289 -0.84841865 -0.4131521 0.1542289 0.19695595 0.35911176 0.68357867 0.07578171
0.46480954 0.029257879 0.12488525 0.016829628 0.025569363 0.39825165 -0.23669916 -0.061466143
-0.65680176 -0.8456664 -0.84437335 0.1603404 -0.079669416 -0.1935144 0.24318808 -0.08364558
0.52981275 -0.4474011 0.5426893 0.5441851 0.49614945 0.3666933 -0.023063187 0.38525409
-0.15974243 0.40715003 0.40347898 0.5422599 -0.7950218 -0.9208442 -1.0594138 0.3690846
-0.05344019 0.44635165 0.18079093 -0.4545115 0.4784818 0.41496316 0.8412127 0.51019233
-0.47748643 -0.3006407 -0.20451355 -0.30644947 0.33184952 0.14168958 -0.60409665 0.0009404679
-0.08184539 0.5083375 0.003489793 0.04400889 -0.25663847 -0.14525312 -0.06819099 -0.2760995
-0.18088561 -0.21754944 -0.25070047 -0.109785914 -0.3936966 -0.04599601 -0.49969125 -0.21466738
0.104271054 0.30868545 -0.14583042 0.4796942 0.16375434 -0.17011029 0.8677567 0.49095976
-0.7398805 -0.8390061 -0.72925586 0.21600403 0.41601193 -0.12207917 0.4577406 0.12601715
0.29239437 -0.29418442 0.2528889 -0.0789243 -0.43868947 -0.03605336 0.2571826 -0.14810306
0.016052715 0.10612668 -0.07720188 0.4530653 0.564934 0.099330164 0.36871457 0.19543116
0.027181005 0.45295146 0.17300695 -0.05195426 0.5480668 0.42450464 -0.012329074 0.39580348
0.05149773 0.41701922 0.2908569 -0.11134432 -0.08090886 -0.30615824 -0.2772397 0.5512965
-0.048716687 0.0141451005 -0.222653 0.44145864 0.0058054826 -0.03536523 0.48291007 0.2606367
-0.7936639 -0.09202666 -0.69952315 0.22258176 -0.23112793 0.3313263 -0.8284204 0.29856992
0.11444146 -0.1374025 -0.07478576 0.44865587 0.25342342 0.6975515 -0.06947219 -0.093155004
-0.3801775 -0.35149217 0.26412004 -0.2161035 0.2519436 -0.20665778 0.0132764 0.46274367
0.5151369 -0.3009591 0.35892665 0.32503006 0.31829438 -0.60152954 0.41031593 0.15067425
0.36993894 -0.16054337 0.6211706 0.2566864 0.370637 0.18719038 0.08409695 0.21270238
0.4953379 -0.11731504 0.23200455 0.115598924 0.02972877 -0.08667219 0.12759817 -0.33355856
0.39898232 0.20590703 -0.01959429 0.032108583 0.22903061 0.1814374 0.20803608 -0.053641796
-0.23995197 0.3699389 0.39218158 0.008958504 0.14678161 -0.081467815 0.9809128 0.25561893
0.33882132 0.2287525 0.3246841 0.34471563 -0.018083012 0.6195439 0.5560771 -0.23205307
0.3278213 -0.5678494 0.5895352 0.056428056 -0.3998325 0.24228318 -0.59621316 0.21110769
0.27558246 0.023186281 -0.0145740835 0.38607198 0.38021374 0.46923667 0.86701506 0.09593123
0.23443529 -0.59936804 0.41137484 0.07529454 -0.43065116 0.54593414 -1.0126457 0.10625654
-0.22385998 0.094977856 -0.47726342 -0.13037118 0.01968956 -0.14051723 0.36270165 -0.38078177
-0.89677995 -0.8202183 -0.5869259 0.3521384 0.21073395 0.4055929 0.6409763 0.5429227
-0.6078966 -0.7610238 -0.37664005 0.14549851 -0.2946964 0.5409965 -0.7103237 0.10974117
-0.29430985 -0.19375509 0.25250757 -0.15028977 0.21357588 0.14389376 -0.49598402 -0.9684212

fc1.bias f4 [64]
00000000: 2f26 91be 6c0c 85be bfc7 c93c 84d5 1e3e
00000010: 7314 bfbe 38fd 8e3d 90f9 d23e c22f f53e
00000020: dd8e aebe 7d45 803e 06c1 2c3d 33dc 803d
00000030: 009c e3ba 40cc 273e a95f 89be b8a3 d03e
00000040: a459 c43e ae88 d73e 6180 913e a91d 18be
00000050: 37cd 66be b8bb b33e e173 7dbd 389a d43d
00000060: 3232 5d3e 1a81 fb3e 220b 213e 34ec 9fbe
00000070: a191 023f 184a 3abe 3d77 b2be 08e9 ddbd
00000080: 5a47 03bf 7c2a 09bf 7f03 2d3e dde6 053f
00000090: f4fa 93be 2e84 733e 0ab9 bfbe 629b 72be
000000a0: bf43 83bc 8e23 8dbe 29b2 89be 82e3 8ebe
000000b0: 74c7 6b3e a309 e83c 9c29 56bd 4d5d ea3e
000000c0: 237b a5be b51e 373e ddff f6bd 59be d23e
000000d0: 4d0a e0be 293f 7abd b805 8bbd 1299 cdbd
000000e0: ee72 ee3c f811 e83e 4031 b8bd 7698 ccbe
000000f0: 5d70 e6bd 3c64 92be 8cb6 8cbe 36ff babd
-0.28349444 -0.2598604 0.02463138 0.15511137 -0.3732029 0.069818914 0.41206026 0.47888
-0.3409337 0.25053015 0.04217627 0.06292 -0.0017365217 0.16386509 -0.26830795 0.40749907
0.3834964 0.42096466 0.28418258 -0.14855064 -0.22539221 0.35104156 -0.06187809 0.103809774
0.21601179 0.49121934 0.15726903 -0.31234896 0.5100346 -0.18192327 -0.34856597 -0.10835463
-0.5128075 -0.5358045 0.16895865 0.52305394 -0.289024 0.23780891 -0.3744586 -0.23692086
-0.016023515 -0.2756619 -0.26893738 -0.2790795 0.23025304 0.028324908 -0.052285776 0.45774308
-0.32320508 0.17882808 -0.12060521 0.4116085 -0.4375786 -0.06109539 -0.067882 -0.100389615
0.029107537 0.4532621 -0.08993769 -0.39960068 -0.112519 -0.28592098 -0.27483022 -0.09130709

fc2.weight f4 [64, 64]
00000000: dd25 b53d f5a7 08be f9a2 8ebd 204f 29bd
00000010: 3dc9 a43d dc14 07bd 35ad 483c a722 84bd
00000020: 9522 283d c13e 8cbd 30bd acbd 3e43 e5bc
00000030: 2c86 b23d 669a efbc 2a68 833a b4cb 523d
00000040: d466 593d 40b8 12bb 614e c13d e644 9ebd
00000050: ab63 7bbd cce5 eebd cc15 953d 46a7 a63d
00000060: 0aaf 933c c65d 223d 40b3 ab3b 4eb4 c53d
00000070: 7ecc ad3d f079 2fbc d8c8 06be 06f7 c73d
00000080: f53f 8ebd b594 aebd 6bd5 d4bd 24c6 99bd
00000090: 82f5 d1bd 3c3e 90bd 1fca 233d 8978 153d
000000a0: f4ba ac3d 81bf 04bd 2969 933d 3200 8bbd
000000b0: 88f6 02be 14b3 693d 821e ee3d 53dd 49bd
000000c0: b68a c83d b220 8f3d 8786 043d 10f7 9f3c
000000d0: 4245 03bc 6e52 c7ba caef d5bc 62e4 8bbb
000000e0: c6dd c63d 6807 59bd e887 dfbd 94d1 edbd
000000f0: 72be 943d 88cb d03d a0f6 5e3d 5851 16bd
00000100: 4419 c63d 4034 9b3c c0b6 fbbb fc18 aabd
00000110: 74d7 d2bd bcc3 5d3d 7028 e0bc 82a4 b3bd
00000120: ca20 96bd 84c0 213d 1cd9 743d 0eb9 a7bd
00000130: 3ecb aa3d eadf 87bd 72e4 d7bd 36ba e4bd
00000140: ca1f d4bd a42a b23d 622e bebd a2e0 99bd
00000150: 581e 223d 2892 0b3d eaf3 c43d 4426 36bd
00000160: 2477 26bd 00cf 233c a848 9bbc 0450 1d3d
00000170: 1c3a 28bd b8b7 25bd 085f f63c 281f fabc
00000180: 54be 2fbd 9842 abbd 20d7 e83d b835 843c
00000190: d4b4 723d 0052 41bd 52df 9bbd fef9 90bd
000001a0: fcdc 56bd 60c1 69bd 1c59 02bd c0ba 08bd
000001b0: fade 8cbd 5055 363d 901c 0b3c 0420 283d
000001c0: 0065 003a e0e1 79bc 60fd a83c 80a4 713d
000001d0: 0254 a93d 909a 4cbd b89f ecbc cc7b 17bd
000001e0: d8d2 863d 5e6c 983d 00d5 8fbd 9015 33bc
000001f0: 2a7d c63d 3e23 b6bd d2e2 82bd 7421 2abd
00000200: 74ac 13be 3cba 0abe e765 443d 292c 06be
00000210: 8ad3 81bd 1cbe 4ebd fa0b 833d 39d1 d33c
00000220: 4ae7 973d 3487 acbd e04d 7cbd 2629 03be
00000230: ee22 cb3d 6c52 473c 852c 18be c4da f83d
00000240: ca2a b33d a8fe f63c 3b7d bcbc 8f58 833d
00000250: 9d1e 74bd dba0 c73d f861 663e ae1e bc3d
00000260: ec36 f13c d372 7dbd 62ad b73d 2977 0abe
00000270: 7290 753d 1302 0fbe 4243 9a3c 8f1b 223d
00000280: 1058 52be 9f72 a03d f426 28bc 1259 1abd
00000290: 9485 333d dcf2 07be d44b ef3d e095 173e
000002a0: 13c6 83bd d146 813d 4ce6 933d f832 8dbc
000002b0: 3b7f 51bd a32c afbd 72e2 5f3b 42d9 65bd
000002c0: a9cb b33c bf64 aabd 5dcc 2f3d edfb 30be
000002d0: 1b30 a33d 5ecc a33d 52f1 3e3d eb15 a7be
000002e0: 3480 fa3d 08b2 fe3c 3400 17bd 83c5 debd
000002f0: 9bfe 1ebe 252c 8fbd 547d d7bd 6c30 413d
00000300: 6c3b 7a3d 929a 373d 0e3e a9bc 2081 e1bd
00000310: 52a2 8dbd 5883 3ebd a0b5 e23a 0fa5 e93c
00000320: 0df7 f8bd f884 b6bd 887f ffbd 5359 d53d
00000330: 00e5 6d3b aa83 66bd e06f ddbd b295 cebd
00000340: f014 65bd 78e7 8dbd 3fcf d03d 0d8f 85bd
00000350: 8aec d2bd 3f72 f23d 88b3 193c 481c 3b3d
00000360: 3800 4a3c af35 aebd c800 ab3d 36a1 05be
00000370: e0f2 a73b c75c 8abd 1915 e5bd 9f65 d4bd
00000380: f036 3cbd 1a86 0fbc 3fcb f4bd 313a b5bd
00000390: 8097 edbd 8122 a2bd 8b72 d63d 037c dd3d
000003a0: b8af 3e3c ded4 d6ba 6ae9 573d 1458 14bd
000003b0: c2ec 70bd 3806 5b3d 18f5 e5bc 8a47 7cbd
000003c0: 31d2 433a a0e8 6e3d d2a9 763c f11f d1bd
000003d0: f148 96bd 3273 0b3d b959 8f3d 7aca ffbd
000003e0: 6001 c93b 04fc ae3d f064 ce3c 287a 2abc
000003f0: 98cc bb3c 30e3 ee3d d65b f8bd a00c d3bd
0.088451125 -0.1334532 -0.06964678 -0.041335225 0.08046196 -0.032978877 0.012248327 -0.06451922
0.041048605 -0.06847907 -0.08434522 -0.027986165 0.087169975 -0.029248428 0.001002555 0.051463798
0.05307658 -0.0022387654 0.09438778 -0.07727985 -0.061374348 -0.11664924 0.07279548 0.081373736
0.018027801 0.03964021 0.005239874 0.09653531 0.084862694 -0.0107102245 -0.13162553 0.09763913
-0.069457926 -0.08524457 -0.10392269 -0.075084955 -0.10251905 -0.0704312 0.03998768 0.036491904
0.08434096 -0.032409195 0.07197792 -0.06787147 -0.12789357 0.057055548 0.11626913 -0.049283337
0.09792082 0.06988658 0.032354858 0.019526988 -0.008012118 -0.0015207061 -0.026115317 -0.0042691687
0.09710269 -0.05298558 -0.10914594 -0.116122395 0.07262887 0.101950705 0.05443442 -0.03669867
0.09672788 0.018945813 -0.0076816976 -0.08305547 -0.10295001 0.054141745 -0.027363032 -0.08771612
-0.07330473 0.039490238 0.059777364 -0.08189593 0.083395466 -0.06634505 -0.10541619 -0.111683294
-0.10357626 0.08699539 -0.092861906 -0.075135484 0.03957972 0.034074932 0.096168354 -0.044470087
-0.040640965 0.009998083 -0.018955544 0.038406387 -0.041071042 -0.04045841 0.030074611 -0.030532435
-0.04290612 -0.08362311 0.11369157 0.016138896 0.059254482 -0.047197342 -0.07610954 -0.07078932
-0.05245684 -0.057069182 -0.031823263 -0.033381224 -0.06878467 0.044514954 0.008490697 0.041046157
0.00048978627 -0.015251607 0.020628631 0.05899477 0.08267976 -0.04995209 -0.028884754 -0.036983296
0.06583184 0.074425444 -0.070230484 -0.010930434 0.09691842 -0.08893441 -0.06390919 -0.04153581
-0.14421254 -0.13547605 0.047948744 -0.13102783 -0.06339176 -0.05047427 0.06398769 0.025856601
0.07417162 -0.084242254 -0.061597705 -0.12808666 0.09918772 0.012165647 -0.14860733 0.12151101
0.08748396 0.030150726 -0.023008933 0.064133756 -0.059599508 0.097474776 0.2249831 0.09185539
0.029445134 -0.061877083 0.08968617 -0.13522018 0.059952207 -0.13965635 0.0188309 0.039577063
-0.20541406 0.07834362 -0.010263193 -0.0376826 0.043828562 -0.13276237 0.11684385 0.14803267
-0.06434264 0.06312335 0.0722166 -0.017236218 -0.051146727 -0.08553436 0.0034162072 -0.056115396
0.021947699 -0.08319997 0.042919505 -0.17283602 0.0796816 0.07997964 0.04661686 -0.3263391
0.12231484 0.031090751 -0.036865428 -0.10877516 -0.15526812 -0.06990842 -0.10521951 0.04716532
0.061091825 0.044825144 -0.020659473 -0.11010957 -0.06915726 -0.046511978 0.001729656 0.028521089
-0.12156496 -0.089120805 -0.124754965 0.10417428 0.0036299825 -0.05627791 -0.10812354 -0.10087146
-0.05592817 -0.06928915 0.10195779 -0.065214254 -0.102990225 0.11838197 0.0093811825 0.045681268
0.012329154 -0.08506333 0.083497584 -0.13049778 0.0051253885 -0.06755977 -0.11185665 -0.10370945
-0.04595083 -0.00876 -0.119528286 -0.0884899 -0.11601162 -0.07916737 0.10471066 0.10814669
0.011638574 -0.0016390344 0.052712835 -0.03621681 -0.05881954 0.053472728 -0.028070971 -0.061591662
0.00074699806 0.058327317 0.015055137 -0.102111705 -0.07338131 0.034045406 0.06999535 -0.12489791
0.006134197 0.08544162 0.025194615 -0.010405101 0.022924706 0.11664426 -0.12126891 -0.103051424

fc2.bias f4 [64]
00000000: 1b12 53bd 4c1a 25bd 573b e53d c987 b4bd
00000010: 54a3 69bd a8fc 0f3c ecfe 893d 30ba bdbc
00000020: c6d6 803d 87b7 dbbd 50d3 adbd 51c9 7a3d
00000030: 8577 c83c 7a82 ab3d b244 9e3d 5c24 803e
00000040: 9292 96bd 8a9d 2f3e 0899 c5bd 5050 0fbe
00000050: 29ca c13d fcbe 38bd 90c2 22bc 4965 b5bd
00000060: f30a aebc 1982 5a3e e0a5 2bbc d4d6 033d
00000070: fc72 a53c 4fc8 bebc cca8 40bd 580b b43d
00000080: 59f3 c13d 182b 9c3c 44e9 c63d 6865 1cbd
00000090: d3f6 b73d 4c5a 70bd 6e74 1a3d 9e44 07bd
000000a0: 70b7 0e3c c7ba 2e3e b027 b1bd 05b9 afbd
000000b0: b5b8 863d 80d9 22bb f459 3a3d 321d ddbd
000000c0: d843 1dbd 1de1 71bd 04fd 3f3e 5493 453e
000000d0: a47b 89bd 37d0 07be 014a 403e 7521 9fbd
000000e0: 98f0 85bc 7369 7b3d 4a29 7d3d b216 a43d
000000f0: b28d 8cbd e383 c0bc fd5c 2e3e c1b8 193d
-0.05153094 -0.04030828 0.11192959 -0.088149615 -0.057040527 0.008788265 0.067380756 -0.02316007
0.06290965 -0.107283644 -0.0848757 0.061227147 0.024471054 0.08374496 0.07727946 0.2502774
-0.07352175 0.1714994 -0.09648329 -0.1399548 0.09462387 -0.045104012 -0.009934083 -0.08857209
-0.021245455 0.21338691 -0.010476559 0.032187298 0.02019643 -0.023288874 -0.047035977 0.08791226
0.09470243 0.019063517 0.09712461 -0.038182646 0.08982625 -0.058679864 0.037708692 -0.033024423
0.008710727 0.17063437 -0.08650148 -0.085802115 0.06578199 -0.0024848878 0.045495942 -0.10796584
-0.03839478 -0.059052575 0.18748862 0.19294482 -0.06713036 -0.13263021 0.1877823 -0.07770053
-0.016350076 0.06137986 0.061806954 0.08012141 -0.06862964 -0.023500388 0.1702766 0.03752971

fc3.weight f4 [3, 64]
00000000: 3c1a e3bc 40a7 f0bd 504f e6bd f8cd 04bc
00000010: 8ccf 8fbd e9c6 86bd 101c 293e e84d c83c
00000020: 05e5 663c 8f0a d0bd 0aa9 813d 9b41 1f3e
00000030: 2433 25bd 80ed 50bb 75f9 283e 5eaf 613e
00000040: d82e 393d 5253 213d 74e3 c43d f559 3c3c
00000050: 74a5 743d c009 e53c 38c2 d33c 70f7 85bc
00000060: 30c7 bebb f9b8 643e 7058 583c 4a14 f1bd
00000070: 50e1 a1bc d772 babd 2e2e 8d3d 046b aa3d
00000080: e940 d9bc e666 82bd 64a6 cdbd 1e32 32be
00000090: e053 ee3d 480d e9bc 0a14 1f3d 6242 203e
000000a0: da78 d7bd e34e 703e 794c a0bb 514a 92bd
000000b0: 38c3 b43d 38aa 21bd f2ab d83c 3033 fa3c
000000c0: 0c30 78bd da1e 093c bcb3 5e3d e701 423d
000000d0: ec11 40bc 5391 76bd 57ed bd3d 4a72 d53d
000000e0: e8a1 bf3d a53b eebc 11e1 c03d 3474 833d
000000f0: eef9 a4bd 34d9 743c c604 db3d 22c7 4e3e
00000100: 7b42 88bd 3a05 80bd 8926 1d3d 68e4 b43c
00000110: 004b 47ba 563c 9b3d ce3a 263e a09e c3bb
00000120: 94af d4bd 39e0 eebd 002f c83c f04f daba
00000130: ff19 9e3d 9a5f a23d 35ac 373e 49a6 a43d
00000140: ba15 aabd 3a59 203e 88e5 c73c 1ebc 86bd
00000150: 0326 b0bd e065 593d b88a ad3d 9509 993d
00000160: 1773 bebc e997 3f3d 1089 c0bc f03f 273d
00000170: fe4b 5cbd d1c5 a1bc 2850 ddbc 0a6a e53d
00000180: 95fc 683c 1c59 d4bd 2387 debd 5671 68be
00000190: 4553 323e 72d7 983d 645a 813d 537f 333e
000001a0: d8f8 51bd 2936 943e 777c de3d e097 593b
000001b0: add1 cf3d e0de ffbb 046e 4c3d 7aca d3bd
000001c0: 5609 e43d 4c14 1abe 095e 853e d163 9a3d
000001d0: a114 81bd b543 d8bc bd68 0b3e 42ad ad3d
000001e0: 8060 0c3c 4d38 c5bd 3564 693d 46eb 2f3e
000001f0: f0c7 afbd 1636 c83d ad8a 453e e98a 50bb
00000200: 3a5c debd b0e1 bb3c 4822 0dbe 807b 81bb
00000210: b8c2 b83c a303 c3bd c431 d53c c43e eebd
00000220: 0b03 523e 9958 8dbd 005f a3bd 4e0f 403d
00000230: e6bc bfbd b4ba 42bd a1e4 1f3d 523a 363d
00000240: 2f24 cebd 1b29 9bbe 1015 913d f6ab febc
00000250: 08b6 fcbd 48cc 4abd dcad b4bd f8ae e4bd
00000260: 8cbe 2d3d 5377 863c 0819 c83d 5068 14bd
00000270: 5045 bebd 71e7 b9bd 48d9 39bd 70ed 733c
00000280: 2a22 bb3d 8482 d63d 94d5 c4bc fd7c bf3d
00000290: b946 873d 641c 8e3d 33b1 29bc 12c5 3bbe
000002a0: 328d ccbd e729 ba3c 413f 823d cdc0 64bd
000002b0: 6c81 bcbd 3869 563d 4514 afbd b881 bd3d
000002c0: 1044 e3bc a5ac 303e ab2b 8c3d 660e c93b
000002d0: da08 a4bd 2288 2abd 7702 9e3d 5eb1 56be
000002e0: b00c 523d f016 253c e816 84be 54c8 633d
000002f0: bc4e 31bd 048d b43d 2830 f53d 86b4 c93c
-0.02772247 -0.117506504 -0.112455964 -0.008105747 -0.07022008 -0.06580908 0.16514611 0.024451211
0.014092688 -0.10158264 0.0633107 0.1555237 -0.040331975 -0.0031879842 0.1650141 0.22039554
0.04521069 0.0393861 0.09613696 0.011496057 0.0597281 0.02795875 0.025849447 -0.016353339
-0.005822085 0.22336186 0.013204679 -0.11771448 -0.019760758 -0.09103935 0.06893574 0.08321193
-0.02652021 -0.063672826 -0.10041502 -0.1740193 0.11637092 -0.028448716 0.03883747 0.15650323
-0.105210975 0.23467593 -0.0048919288 -0.07143081 0.088262975 -0.039468974 0.026449177 0.030541986
-0.060592696 0.008369172 0.054370627 0.047365095 -0.011723023 -0.060197186 0.092737846 0.104221895
0.09357053 -0.029081175 0.09417928 0.06418648 -0.08055483 0.014944363 0.1069427 0.2019315
-0.06653305 -0.06250997 0.038366828 0.022081569 -0.00076024234 0.075798675 0.1623337 -0.0059698373
-0.10385051 -0.11663861 0.024436474 -0.0016655903 0.07719802 0.07928391 0.17936786 0.08039529
-0.08304925 0.15659037 0.024401441 -0.06578849 -0.08601 0.05307567 0.08473724 0.07472531
-0.023248238 0.046775732 -0.023502856 0.04083246 -0.05378341 -0.019747647 -0.02701576 0.11201866
0.0142203765 -0.10368559 -0.10865619 -0.22699484 0.17414577 0.07462968 0.06316069 0.17529039
-0.051262707 0.2894757 0.108635835 0.0033202097 0.10147414 -0.007808551 0.049909607 -0.10341354
0.11134593 -0.15046805 0.26048306 0.0753857 -0.06302763 -0.026399473 0.13614173 0.08480312
0.008567929 -0.09629879 0.05698033 0.17179593 -0.08583057 0.09775941 0.19291182 -0.0031821078
-0.108574346 0.022934765 -0.13782609 -0.00395149 0.022553787 -0.09522178 0.026024707 -0.11633065
0.20508973 -0.06901664 -0.07977104 0.046889596 -0.093622014 -0.047541335 0.039036397 0.044489212
-0.10065495 -0.30304798 0.070840955 -0.031087857 -0.12339407 -0.049511224 -0.088222235 -0.11166185
0.042418048 0.01641432 0.09770399 -0.036232293 -0.09290564 -0.09077347 -0.04537323 0.0148881525
0.09137376 0.10474113 -0.024027623 0.093500115 0.06605286 0.06939009 -0.010357189 -0.18336895
-0.09987868 0.022725059 0.06359721 -0.05584793 -0.09204373 0.05234644 -0.08548788 0.092532575
-0.027742416 0.17253359 0.068442665 0.0061357496 -0.08009501 -0.041633733 0.07715314 -0.20966098
0.05128163 0.0100762695 -0.25798726 0.05561097 -0.043287978 0.08815959 0.11972076 0.024622213

fc3.bias f4 [3]
00000000: cf46 903d cf65 a23c 7b8b 403e
0.07044756 0.019823937 0.18803208

exp_avg f4 [64, 4]
00000000: 93f8 a9c5 f0ef 42c5 dcb9 26c0 10ec bbc7
00000010: 5444 6148 1852 7948 eb82 7940 ea4f d047
00000020: 04c3 8747 90aa 9847 3a27 733f d9cc 2247
00000030: 90c0 00c8 47bc 33c8 7cc8 d13d e37e 1ac7
00000040: 38f1 9fc5 2920 3cc5 9882 0bc0 740b b3c7
00000050: 0000 0000 0000 0000 0000 0000 0000 0000
00000060: 2a98 9448 1296 8648 ed7d ae40 5767 d047
00000070: f744 8a48 7f84 7348 c364 cd40 3b16 b147
00000080: f5f7 2c48 f944 4248 b187 f03f d7ff c247
00000090: 468b e8c3 8d71 90c3 71ba 13be db26 3cc6
000000a0: fca7 2fc8 8a53 29c8 f9ab b840 06d5 c946
000000b0: a051 ccc7 bbfe 24c7 f3ce 7fc0 0de3 29c5
000000c0: 0000 0000 0000 0000 0000 0000 0000 0000
000000d0: 776e cd47 38b1 f5c7 d238 3a41 e9d2 9fc7
000000e0: 625b c847 06e2 e147 006f 34bf baae 0747
000000f0: 0000 0000 0000 0000 0000 0000 0000 0000
00000100: 0000 0000 0000 0000 0000 0000 0000 0000
00000110: 0000 0000 0000 0000 0000 0000 0000 0000
00000120: c1ab 4147 14f0 9c47 9aee 883f 8eeb 3147
00000130: e3f6 6a48 0bf2 7d48 e1e2 7240 02fe e247
00000140: c35e 2bc5 a85f d5c4 901f 23bf 1ea0 5fc7
00000150: 3aea db47 7f9b 1448 45e5 e03f 8845 a847
00000160: cc54 32c8 c4c1 29c8 69fa 8340 98ee abc6
00000170: 0000 0000 0000 0000 0000 0000 0000 0000
00000180: 4710 2f48 1f78 1b48 9251 9e40 ecb1 9447
00000190: 03eb c748 a45e ce48 79ba 1841 9fb8 3748
000001a0: 4348 9947 3730 d8c5 380c f440 4dd5 4347
000001b0: a52f ff48 a33d f048 bf6f 3441 6971 3f48
000001c0: 5b52 3945 1490 26c7 c9c7 3d40 d570 db45
000001d0: fe0e 8547 55b1 0d47 4103 10c1 a6b7 2ac8
000001e0: 1053 c747 aed9 f847 41f0 59be c0b0 6947
000001f0: 2209 e847 108b c247 b9cd d93f 99f3 2547
00000200: 0f32 02c4 0ff4 eac3 9c2f 62be ff13 4fc6
00000210: c456 4147 e54c 3647 33cb bfbf a770 c9c5
00000220: 774f 0d49 0c7c 0049 f000 4941 b9e3 4c48
00000230: 564f 2b49 6ca7 e748 22fb c441 bedf 3a48
00000240: 0000 0000 0000 0000 0000 0000 0000 0000
00000250: 862d 1849 1cba 0349 272a 5541 703a 3548
00000260: 8a70 0849 b26a f948 6cde 4941 ddc0 4048
00000270: 078d 40c8 576d 4ac7 748e 3ac0 b02f 1f47
00000280: 8b97 8948 da41 8048 0f43 7f40 41b8 9b47
00000290: 9049 7748 c019 8048 99ef 9640 21ea d147
000002a0: 4c4b 1b48 c243 1248 6542 4140 58b8 5047
000002b0: 0000 0000 0000 0000 0000 0000 0000 0000
000002c0: 75fd 5f48 4515 7048 8fe0 9a40 5270 b447
000002d0: 3e26 9948 a54a 4b48 f1a4 4a41 45b1 ba47
000002e0: 1d12 dec8 55b4 bec8 c942 5540 2868 aa47
000002f0: 98ec 1948 4a96 2548 d7d9 fc3f f703 8d47
00000300: 2db3 6cc5 792d 2b47 9fa4 0ec0 ca9f da46
00000310: 5797 c2c9 50bc 84c9 332e dbc1 0dac 69c8
00000320: f30a 2948 df5a 2348 0d52 4fbf bafe 4747
00000330: a7cf abc7 bb52 bdc7 0baf 8fc0 e689 a0c7
00000340: 78fd 5b48 da13 4c48 53e1 b540 48be c147
00000350: 20c2 4148 9365 5848 f2d0 d93f dec3 9047
00000360: 8ba0 40c8 2929 5dc7 73ed c1c0 0846 c544
00000370: 69cd bb48 93dc 8848 5133 56c0 4ee8 9fc7
00000380: 0400 0000 0400 0000 0400 0000 0400 0000
00000390: 0000 0000 0000 0000 0000 0000 0000 0000
000003a0: 5f7a 95c5 c228 1cc5 0407 0fbf cca8 78c7
000003b0: 576c c147 7a16 c947 85ba c93f 6650 7a47
000003c0: 0bae adc5 a496 49c5 b61b 23c0 c92b bfc7
000003d0: e7c4 b0c8 ce33 7fc8 3245 cbc0 8cda 11c8
000003e0: 0000 0000 0000 0000 0000 0000 0000 0000
000003f0: 1175 1f49 d167 6048 a404 0f42 d8af 9048
-5439.072 -3118.996 -2.605094 -96216.125 230673.31 255304.38 3.8986156 106655.83
69510.03 78165.125 0.9498173 41676.848 -131842.25 -184049.11 0.102433175 -39550.887
-5118.1523 -3010.01 -2.1798458 -91670.91 0.0 0.0 0.0 0.0
304321.3 275632.56 5.452872 106702.68 283175.72 249361.98 6.41855 90668.46
177119.83 198931.89 1.879141 99839.68 -465.08807 -288.88712 -0.1442659 -12041.714
-179871.94 -173390.16 5.7709928 25834.512 -104611.25 -42238.73 -3.9970062 -2718.1907
0.0 0.0 0.0 0.0 105180.93 -125794.44 11.638872 -81829.82
102582.766 115652.05 -0.7048187 34734.727 0.0 0.0 0.0 0.0
0.0 0.0 0.0 0.0 0.0 0.0 0.0 0.0
49579.754 80352.16 1.0697815 45547.555 240603.55 260040.17 3.7950976 116220.016
-2741.9226 -1706.9893 -0.63720036 -57248.117 112596.45 152173.98 1.7569968 86155.06
-182611.19 -173831.06 4.1243176 -22007.297 0.0 0.0 0.0 0.0
179265.11 159200.48 4.9474573 76131.84 409432.1 422645.12 9.545526 188130.48
78480.52 -6918.027 7.6264915 50133.3 522621.16 492013.1 11.277282 196037.64
2965.1472 -42640.08 2.965319 7022.104 68125.984 36273.332 -9.000794 -174814.6
102054.125 127411.36 -0.21283056 59824.75 118802.266 99606.125 1.7015907 42483.598
-520.78217 -469.9067 -0.22088474 -13252.999 49494.766 46668.895 -1.4983886 -6446.0815
578807.44 526272.75 12.562729 209806.89 701685.4 474427.38 24.622623 191358.97
0.0 0.0 0.0 0.0 623320.4 539553.75 13.322791 185577.75
558856.6 510805.56 12.616802 197379.45 -197172.11 -51821.34 -2.9149446 40751.688
281788.34 262670.8 3.988468 79728.51 253222.25 262350.0 4.7167478 107476.26
159021.19 149775.03 3.0196774 53432.344 0.0 0.0 0.0 0.0
229365.83 245845.08 4.839912 92384.64 313649.94 208170.58 12.665269 95586.54
-454800.9 -390562.66 3.3322012 87248.31 157618.38 169561.16 1.975398 72199.93
-3787.1985 43821.473 -2.2287977 27983.895 -1.5940909e+06 -1.08737e+06 -27.397558 -239280.2
173099.8 167275.48 -0.80984575 51198.727 -87967.305 -96933.46 -4.4901175 -82195.8
225269.88 208975.4 5.6837554 99196.56 198408.5 221590.3 1.701689 74119.734
-197250.17 -56617.16 -6.0602355 1578.1885 384619.28 280292.6 -3.346882 -81872.61
6e-45 6e-45 6e-45 6e-45 0.0 0.0 0.0 0.0
-4783.2964 -2498.5474 -0.5587008 -63656.797 99032.68 102956.95 1.5760046 64080.4
-5557.7554 -3225.415 -2.5485663 -97879.57 -362023.22 -261327.22 -6.3521967 -149354.19
0.0 0.0 0.0 0.0 653137.06 229791.27 35.75453 296318.75
